ExampleNeuralNets/NNHeatTransfer/model_large.tflite (tflite, 182696 bytes, 11 tensors)

sequential_5/Hidden_5/BiasAdd/ReadVariableOp/resource f4 [16]
00000000: 28fd 2cba a75e 97bd ba1a 42bc 19bd 66bd
00000010: 510f 02bd 5ad7 bebd 56f6 70be 59a6 51bb
00000020: 6c27 7ebe f5f3 e2be 3567 34bd f1cc 603c
00000030: 3ef4 e2bc 365c c4bd 664f 91bd 7eeb 19be
-0.00065990025 -0.073911004 -0.011847192 -0.05633268 -0.031752888 -0.09318419 -0.2353147 -0.003199002
-0.24819726 -0.4432675 -0.04404374 0.013720737 -0.027704354 -0.095879 -0.07095222 -0.1503124

sequential_5/Hidden_4/BiasAdd/ReadVariableOp/resource f4 [32]
00000000: eafa 90bd d6f6 a93c c421 05bd cebe dabd
00000010: 1715 d8bb 111d 02bd 17ab 84bd 13bd e2bd
00000020: ef57 65bc ec0d c6bd de01 28bd ede3 38bd
00000030: f28b 29bd 598a c7bd 762a fbbd 8a71 27bf
00000040: 6e61 e2bc 80b2 e0bc ab47 07bd 6682 acbd
00000050: 1655 1ebf 6344 6dbd e0c8 29bd 56c3 ee3c
00000060: 940a 88bd 1a56 73bd d21b b3bd 2476 59bd
00000070: 522c 85bc 8c20 61bd e0b1 1bbd 2bb6 b83a
-0.07079108 0.020747583 -0.032502905 -0.10680924 -0.006594311 -0.031766 -0.06477945 -0.11071219
-0.013998016 -0.09670624 -0.041017406 -0.045139242 -0.041393228 -0.097431846 -0.12263958 -0.6540762
-0.027634349 -0.027428865 -0.033027332 -0.08423309 -0.6184858 -0.057926547 -0.041451335 0.029145878
-0.066426426 -0.059408285 -0.08745541 -0.053091183 -0.016256485 -0.05496268 -0.03801143 0.0014092376

sequential_5/Hidden_3/BiasAdd/ReadVariableOp/resource f4 [64]
00000000: 1aa1 36bd 2c34 1ebd 17e7 38bd baef 8cbc
00000010: 8790 69bd 05dd 6cbd 533e 033c 8417 77bd
00000020: 8dba 2dbd 7738 83bc 66ad 8fbd de94 e6bc
00000030: 471d 13bd 993e 863c 656f 01bd bbd9 73bd
00000040: 1444 9abd 52b2 d0bc 85eb 28bd 2852 d3bc
00000050: 350a 97bd 7e45 01bd 61e6 513b d46b bebd
00000060: c6a3 12bd 288a a3bc 834c 70bd 209f efbc
00000070: 9b92 433d a45e bfb8 2928 09bd 9e4d cbbc
00000080: 5284 1bbc 5f65 97bb 61ea 3fbd 01f9 d0bc
00000090: 1658 e7bc c7bf 80bd d81d fdbe 6c87 71bd
000000a0: 6677 00bd 8872 3ebc 3fed 31bc 7a92 80bc
000000b0: 3110 b5bc caa3 9cbd b954 8cbc 0463 edbd
000000c0: 4ece 8dbc b41f c0bd 7e2d 0cbd 0867 2cbd
000000d0: dca0 87bd c15f febc 0571 50bd e687 92bd
000000e0: 8fb3 9ebd 09fe 67bd c69e 18bb ca2b 10bd
000000f0: 1303 22bd 8a76 30bd 9e02 c5be 3c40 ae3b
-0.044587232 -0.038623974 -0.04514226 -0.017204154 -0.057022598 -0.05782797 0.008010465 -0.06032516
-0.042414237 -0.016018135 -0.07015495 -0.028147157 -0.035916593 0.01638727 -0.031600375 -0.059533816
-0.07532516 -0.025475655 -0.041240234 -0.025796011 -0.07374994 -0.031560414 0.0032028186 -0.0929791
-0.035800718 -0.019963339 -0.058666717 -0.029250681 0.047747236 -9.125218e-05 -0.033485565 -0.024817284
-0.009491997 -0.0046202387 -0.04685438 -0.02550936 -0.028240245 -0.062865786 -0.4943683 -0.05896704
-0.031363867 -0.011623986 -0.0108597865 -0.015694845 -0.022102447 -0.07648428 -0.017130243 -0.11591151
-0.017310288 -0.09381047 -0.034223072 -0.042090446 -0.06622478 -0.031051518 -0.050889034 -0.07154827
-0.07749092 -0.05663875 -0.0023287996 -0.03519801 -0.039553713 -0.043081798 -0.3847856 0.005317716

sequential_5/Hidden_2/BiasAdd/ReadVariableOp/resource f4 [128]
00000000: 7d64 41be e103 45bd 52a1 ee3c a78c 21be
00000010: 7a5f 30be c244 75bc 4636 afbb 4d93 60bd
00000020: 8385 94bc 5ef8 14bc ceeb 0bbc 165e 20bc
00000030: acec d53b 6d0e 663d b151 96bd 485c bebd
00000040: ba5c e8bd fd3a 61bc fc72 8fbe 1c95 06be
00000050: 2dca c4bb 97af 32bc 0a73 a0bd 021d 02bd
00000060: fc76 d2bc a8d1 7ebc 2ef5 54bd bbd9 6b3c
00000070: 7587 8bbc 6d12 67bc 5e19 c9bc f7fe 47bd
00000080: 922b d63c 8877 b9bc 4769 81bd 1773 b8bc
00000090: dd09 07bc 761e 91bd 9f9f 8f3d 0000 0000
000000a0: 1fdb a2bd 54ed 87be 26ce a8bc 78d3 dabc
000000b0: 66aa 8dbd a82c 4bbc 3bf7 29bd d6da 14bd
000000c0: 492d 5a3d 592a 2bbc 813b 813d c141 963d
000000d0: 6175 f6bc 5917 1cbd a2d6 3cbd e00b d3bb
000000e0: 4169 74bd 2637 1abb 5bab 1ebd b279 4fbd
000000f0: afed e4bc cf50 10bd 6e88 dbbc 6b7e 88bc
00000100: f115 52bd 04a3 cfbd ec46 07bd 69e8 19bd
00000110: d77e d4bd dd8d 9abd a66d 0ebe 00ee f13c
00000120: 1377 46bd 6365 d4bc a96b 393d 6691 b6bb
00000130: e7eb 23be 0000 0000 8a9b 5ebc b211 79bc
00000140: 38d9 cabb 653b 64bb 9d13 98bc 1470 f8bc
00000150: 2a9d 6bbb e066 9bbd d30d 4dbb 901c 02bd
00000160: 85d6 edbb b4cb 40be 504d 963a d5fa 843c
00000170: 25cd 78bc 147e 80bb 3fe7 55bd ab93 833c
00000180: 30a3 73be d5fd bfbe 00fc a9bc 21ad 36bd
00000190: febf 90bd 06db 1dbc c577 98bd 02a8 c5bc
000001a0: cc7a d8bc eb63 edbc 5064 5cbc e586 00bd
000001b0: 5d74 d3bc 0c8f 97bd 9628 14bd 2d03 4ebd
000001c0: 3de2 85bd 9c9c 18bd c112 8e3d 7dbc 6d3d
000001d0: 3a1c 02bd f041 32be ada2 3dbd 36c3 3dbc
000001e0: 54b5 74bd 11f9 7ebd 8767 06bd 5f34 8c3d
000001f0: 9b20 89bd 56a1 b2bc ca24 96bc 041d 02bd
-0.1888599 -0.048099402 0.029129658 -0.15776311 -0.17223921 -0.014970006 -0.005347046 -0.054827977
-0.01813007 -0.0090924185 -0.008540107 -0.009788057 0.0065284576 0.0561661 -0.073398 -0.09294945
-0.11345811 -0.013746974 -0.28017414 -0.13142818 -0.0060055465 -0.010906122 -0.07834442 -0.031765945
-0.025691502 -0.015552916 -0.051991634 0.014395173 -0.017032364 -0.014103514 -0.024548229 -0.048827138
0.026143823 -0.022640005 -0.06318908 -0.022515817 -0.008242098 -0.07085888 0.07012867 0.0
-0.0795195 -0.26548254 -0.020606112 -0.026712164 -0.069172665 -0.012400784 -0.041495543 -0.03634151
0.053265844 -0.010447108 0.063101776 0.0733676 -0.030085267 -0.038108204 -0.046103127 -0.0064406246
-0.05967069 -0.0023531406 -0.038737636 -0.050653167 -0.027945368 -0.035233315 -0.026798453 -0.016661843
-0.051290456 -0.10138515 -0.03302662 -0.03757516 -0.10375755 -0.075465895 -0.13909015 0.029532433
-0.0484534 -0.025927251 0.04526869 -0.005571532 -0.16007958 0.0 -0.013586888 -0.015201973
-0.0061904453 -0.003482544 -0.01856404 -0.03032688 -0.0035951831 -0.07587981 -0.0031288757 -0.03176552
-0.0072582387 -0.18827707 0.0011467133 0.016232887 -0.015185629 -0.0039212797 -0.052222487 0.016061625
-0.2379272 -0.37498346 -0.020750046 -0.044598702 -0.070678696 -0.009634739 -0.07444719 -0.024127964
-0.026425742 -0.028978309 -0.013451651 -0.031378645 -0.025812322 -0.07400331 -0.03617152 -0.050295997
-0.06537292 -0.03725873 0.06937171 0.058041085 -0.0317652 -0.17407966 -0.046297718 -0.011582186
-0.05974324 -0.062249247 -0.032813575 0.068459265 -0.06695672 -0.021805447 -0.01832809 -0.031765953

sequential_5/Hidden_1/BiasAdd/ReadVariableOp/resource f4 [256]
00000000: bc9b 84bb 25f4 073d 8dfa 183d 4a29 6b3c
00000010: 0000 0000 35ec e5bb 1d5b 1abc 277d b33b
00000020: 5fec 83bd 724d bfbd 2f5b 1e3d 78c1 21bd
00000030: 0000 0000 ae71 2bbd 0462 32bc b036 32bd
00000040: c021 7fbd 3315 8ebb 0000 0000 319f 02bc
00000050: 0000 0000 9885 b1bb 08e8 3abd 0000 0000
00000060: d58e 06bd 6275 223d bcb7 a43d c580 fdbc
00000070: 37ef 073d ac31 cabc 57e4 99bd 14d8 8ebd
00000080: c360 4f3b 567b 58bb 1f10 d53c b94d 95bd
00000090: bdcd ae3c 0000 0000 0d50 febd 0000 0000
000000a0: 0000 0000 fefa 69bd f645 68bc 82c1 29be
000000b0: 0000 0000 b91f 25bd 0000 0000 9a7d 0fbc
000000c0: 7b2d d93d ab39 42be 4289 1dbd 153a e1ba
000000d0: 72c0 4bbc 0000 0000 e1d7 bc3c 2b9b b1bd
000000e0: 0000 0000 c4f3 2bbd 0000 0000 1952 043d
000000f0: 0000 0000 0000 0000 3dbc be3c b61d 2cbd
00000100: 08ed 53be 5c3c 7abd 9b8f a5bc 36de 6039
00000110: 245e 4fbd 0000 0000 97f7 ebbc 0000 0000
00000120: 0000 0000 0000 0000 b72f 473d 3bc9 5b3d
00000130: 0000 0000 bf31 3fbd e5f2 d0bc 91a9 db3c
00000140: 19d1 db3c 93c5 10bd c32e 15be 5166 84bb
00000150: 3ef1 54bc 22d7 bebc 0000 0000 f8de 583c
00000160: 5aff 26be 7ed5 0a3c 8a2e 69bc 8d7c 2fbc
00000170: 9788 26be 0000 0000 0000 0000 2fa5 62bd
00000180: 5375 e3bb 6a1d a9bc 0000 0000 965b 9bbd
00000190: a1fe cfbd 3f79 05bc aa17 eebc 4b28 8bbc
000001a0: 2112 c13c 428b 27bd 323b 39be 381f 5bbc
000001b0: 3587 dbbd 0000 0000 248a 24be 7d08 803c
000001c0: e3a3 183d a962 debc aeb4 e83b 11c8 5abe
000001d0: 9a79 b6bc 2d51 48bd 711f 87bd e25a 81bd
000001e0: c2f1 95bd 8a60 03be f2ee 15bc 9d7c 29bd
000001f0: 108a f83b 0000 0000 dd24 4bbc a8d8 853c
00000200: b982 843d d5dd 80be ad54 d5bd 5720 b3bc
00000210: 7005 53be 5e37 f9bc 2fa0 45bd 0000 0000
00000220: 69a1 01bd b77d 0cbe c0a0 6d3d 0000 0000
00000230: 9a92 3a3d fb11 15bd 29f7 0bbe 45b3 293d
00000240: 63df 9bbd a959 8dbc afa2 c93c afbf 5bbc
00000250: 0000 0000 0000 0000 e80c 54be 18a7 1bbc
00000260: 42cd 27bd cf40 e1bc 0000 0000 ef56 ccbd
00000270: 50e8 63bc b54c 89bb d7c3 a5bd aef6 2fbd
00000280: 562a 0fbc 41f5 edbc cb60 473c f02e 45bd
00000290: 8af6 01bd 4795 d8bc 685f 00bc edde 0abc
000002a0: eb49 0dbe 5d35 5ebb 7187 38bd fe49 5cbe
000002b0: b554 283d 801f 0a3d 0000 0000 5589 30be
000002c0: c30b 4a3b 9f97 9c3d 0001 173d 5f92 0fbc
000002d0: da3a cdbd 83a4 0b3d c1ee 27bc cbfc 81bd
000002e0: 0000 0000 f990 79be 1758 8fbd 0000 0000
000002f0: d793 3abc f90a 9ebc d610 e7bc 6d15 d5bc
00000300: 3643 9fbc 6b1e 03bd f68e 353c f041 28bd
00000310: 0000 0000 5cf4 28bd f18a d1bc 6321 1d3c
00000320: 68c0 abbd 4019 123d 2863 95bd 94f4 f73c
00000330: 3ce4 2abb 0000 0000 62ed a23c 0000 0000
00000340: 0000 0000 5756 ea3c f4b0 01bc f78d 88bd
00000350: 4094 c83c bd1c b0bd 4958 2ebe 5acb 3fbc
00000360: f480 adbd ec2f e9bc 4005 4bbd 0000 0000
00000370: c650 acbc ba86 9cbd 0000 0000 ed7b 22bd
00000380: 3234 923b e3cb f43b 5d28 493d a93d b5bc
00000390: 5ef9 02bc 8f45 143b 4f31 6fbc 0000 0000
000003a0: df30 33bd 0e46 4ebc 4a30 b8bc 8f88 863a
000003b0: 239e e3bc 53bf 833d fa9c 8dbc 1425 643c
000003c0: 1359 72bd 0000 0000 a034 a2bd c71e c0bd
000003d0: 0366 07be 1ae8 ce3d 2cd2 07bd 3e6f e13c
000003e0: f3ab 66bd 3bb0 0bbd a26c 8c3d d914 68be
000003f0: e43d dfbc 0000 0000 6bc4 d83c 28e9 64bd
-0.0040468853 0.03319182 0.03734832 0.014353106 0.0 -0.0070166835 -0.009421137 0.005477566
-0.064415686 -0.093409434 0.03866118 -0.039491147 0.0 -0.04185646 -0.010887627 -0.043509185
-0.062288046 -0.0043360232 0.0 -0.0079725245 0.0 -0.005417537 -0.04563144 0.0
-0.03285106 0.039662726 0.08042857 -0.030945191 0.033187117 -0.024681889 -0.075142555 -0.069748074
0.0031643368 -0.0033032498 0.026008664 -0.07290215 0.021338338 0.0 -0.12417612 0.0
0.0 -0.05712413 -0.014176836 -0.16577724 0.0 -0.040313456 0.0 -0.008757973
0.10604378 -0.18967311 -0.038460977 -0.0017183447 -0.012436019 0.0 0.023052158 -0.08672174
0.0 -0.04198052 0.0 0.032304857 0.0 0.0 0.023283118 -0.042020522
-0.20695889 -0.06109272 -0.020210078 0.00021445085 -0.05062689 0.0 -0.028804583 0.0
0.0 0.0 0.04862949 0.053658705 0.0 -0.0466783 -0.025506446 0.026814254
0.026833104 -0.03534467 -0.1456862 -0.0040405174 -0.01299697 -0.023295943 0.0 0.013236754
-0.16308346 0.008473752 -0.014232287 -0.010710848 -0.16263042 0.0 0.0 -0.055333313
-0.0069414764 -0.020643909 0.0 -0.07585828 -0.101559885 -0.008146583 -0.029064018 -0.016986987
0.023568215 -0.04090429 -0.18088987 -0.013374142 -0.10719148 0.0 -0.16068321 0.015629048
0.03726567 -0.027146654 0.007101617 -0.21365382 -0.022274781 -0.04890554 -0.06597794 -0.06316163
-0.07321502 -0.12829795 -0.009151207 -0.041378606 0.0075848177 0.0 -0.012398926 0.016338661
0.06470246 -0.25169244 -0.10416541 -0.021866007 -0.20607543 -0.030421909 -0.048248466 0.0
-0.031648073 -0.13719831 0.05801463 0.0 0.045549966 -0.0363941 -0.13668503 0.04143073
-0.07610967 -0.017254667 0.024613706 -0.0134124 0.0 0.0 -0.20708048 -0.0095002875
-0.040967233 -0.027496723 0.0 -0.09977519 -0.013910368 -0.0041900524 -0.08093994 -0.04295986
-0.008738121 -0.02904761 0.012169073 -0.048140466 -0.03172926 -0.026438368 -0.007835247 -0.008476001
-0.13797729 -0.0033906319 -0.045051042 -0.21512601 0.041096408 0.033721447 0.0 -0.17239888
0.0030829764 0.07646107 0.036866188 -0.008762925 -0.10020991 0.034092437 -0.010249794 -0.063470446
0.0 -0.24371709 -0.06999224 0.0 -0.011387787 -0.019292342 -0.02820627 -0.026011193
-0.019441228 -0.03201143 0.011081448 -0.041078508 0.0 -0.041248664 -0.025578948 0.00959048
-0.08386308 0.03566861 -0.07294303 0.030267991 -0.002607598 0.0 0.019888584 0.0
0.0 0.028605623 -0.007915724 -0.06667703 0.024484754 -0.085992314 -0.17025866 -0.011706198
-0.084718615 -0.028465234 -0.049565554 0.0 -0.02103461 -0.076428846 0.0 -0.039668966
0.0044617886 0.0074705943 0.04911076 -0.022124128 -0.007994024 0.0022624468 -0.014599158 0.0
-0.04374778 -0.0125899445 -0.022483964 0.0010264086 -0.027785366 0.064329766 -0.017286766 0.013924856
-0.05916698 0.0 -0.07920194 -0.0938087 -0.13222508 0.101028636 -0.03315942 0.027518865
-0.056316327 -0.034103613 0.068566576 -0.22664203 -0.027251191 0.0 0.026460847 -0.055886418

sequential_5/Hidden_2/MatMul f4 [128, 256]
00000000: e77d b43d 61ff cdbd 989f 863e 11f7 8cbf
00000010: 788c f63d ffa2 55be b5c9 773c bea9 b9be
00000020: dadb 083d 684a adbd ed1c afbd 4017 0bbd
00000030: 4890 a5bd 70a2 c23d e9bd 64be 84c2 91bd
00000040: 7009 a2bc 1a03 d53a ec91 fdbd c2d9 b5bd
00000050: 00df ce3c 4403 e83b 8665 373c e036 0c3c
00000060: f56a a13d b4e4 7d3e 6240 fcbb 51e8 f23c
00000070: ff6f 1d3e 7614 d3bc 54da 183d 0a7f 31be
00000080: 8921 6c3d 504c 863d 8346 a8bd c5d6 1cbd
00000090: a638 0c3f 001c 943d 7a35 d53d 3ca7 eb3d
000000a0: 60f2 333c c8a7 a8be 2759 01be ecd9 55be
000000b0: 0c2d dcbd 36c6 95bd e012 ae3c d275 263d
000000c0: 1a2f c43d 927a 203e 0f8d d8bb f60e e8bb
000000d0: 8584 e2bc 00de 45bc 7aaa 5abd fd78 2abe
000000e0: 2421 cb3d e12a de3c 20dd 5f3d 9c26 5c3d
000000f0: 7077 acbd 9c3e c2bd 3ebe 073f 298a 06be
00000100: f9a1 ca3d ef11 1a3d f8a7 1cbe bcdb 3d3d
00000110: e323 a13c f031 b3bd d654 03bd 2014 aebc
00000120: 009a 89bc 6023 d13d 7b0e 4e3e 4f14 e53d
00000130: c804 a33d 7384 953c c035 bebd 6037 4cbf
00000140: 116e 97bd e1e8 d8bd bf70 57bf 7aa8 f6bd
00000150: 0d68 a43c b856 02bd 90da d23c cd7c b33f
00000160: b0e5 bdbd eab9 c1bd b0f1 093b c766 d23d
00000170: 66dc bcbe c073 ffbc b46c ffbd f53c 32bd
00000180: cfc0 81bd dc0d 79ba d01e 113d 1025 3abe
00000190: f03d e2bd 55d2 ea3c c165 b4bc ced2 ccbf
000001a0: f1ff 513f c74c 8a3d 47f3 483d 3adf 663c
000001b0: 25ee 783d 0019 77bd 54fe 98be 2e84 8cbd
000001c0: c90a 0abe 7752 643d 47f4 64bd be20 a93e
000001d0: 6bd3 313d 1b04 993d 1463 5abc 33ae b0bd
000001e0: 4a0d b0bb d0c9 333e 068b 4ebf d5fe d23d
000001f0: 0272 d6bd 0ce2 c23d 12c5 1a3c 814a 853e
00000200: d642 1f3e 654a b23e c8a3 de3d 5d28 f6bd
00000210: 6bcb babd 46ee 923d 1a03 243d 44f4 c0bd
00000220: 8868 debc b7dd eb3d 74cd 303e bc2e bc3d
00000230: abbd 873d 3bca 02be 6eeb 80bd 33c6 443e
00000240: 2f77 d6bd 4165 82bc c48d da3c 17ff 5ebd
00000250: 74d4 ad3d d077 6fbd fe30 eebd a56a febd
00000260: 5416 613c e4e9 64bd 58d2 fabd cb46 6cbd
00000270: b9c0 a93c 380f 663d 8c57 c33d 8111 0dbe
00000280: 5e5b 32bd 551f c9bd bcf6 e53d 6353 a0bc
00000290: 7cb9 82bd 2fbb 05be 5043 04be 8e71 653d
000002a0: 1d6c 513d 56ad a5ba c8c2 98bc 4652 e93e
000002b0: 6a88 ccbe 4415 56bd e808 9dbd 9f49 44be
000002c0: a7b6 ed3d 0eac 85bc b0d4 b93d 1a45 34bf
000002d0: db0f bdbd 8b60 313e f04d a0bc ba51 18bb
000002e0: d08a f0bd 932c 9b3e 5e87 a23c 8004 463b
000002f0: bd87 8abd 5b17 b73b 9bb6 763d eff1 6fbd
00000300: b723 07be 9e51 00be 6172 0b3f 7165 313d
00000310: 004a c13d 9b07 a4bd be12 5abd d8ce 223f
00000320: 5e93 13be 61fc cabd e148 b53d cd35 6b3e
00000330: 4bc8 cdbd 38f4 0dbd 9798 a03d 302b 4dbd
00000340: 7c3d efbd bad5 cd3e 648f eb3d 53ec 47bf
00000350: 580d 3fbf c6d6 f43d b979 ab3d f9da d1bd
00000360: 8f68 ffbd 3754 f73d 4a15 aa3d 30c3 ce3c
00000370: 7481 d7bc 2c7c 0bbe 5062 da3d 433e d43b
00000380: c93f 023d d228 7bc0 8101 f93d 4f97 aabd
00000390: 9cfa bb3c 5c7b 0cbe e423 0fbe 30e3 dd3d
000003a0: a5d5 0dbe 8b14 9c3c 715a 8f3d 8982 cd3d
000003b0: 353b 23bb e330 ca3d 642e 7abd 371a 8a3e
000003c0: d2d0 5c3d 04db b1bd ea46 c4bc f325 cdbd
000003d0: e1cd 773d 042f b23d 8be7 733d 0fb7 09be
000003e0: 7917 95bd d05e 1abe 8fa1 ebbc 3cac 553e
000003f0: e284 213e 50a5 7c3d 80ec 81bd a027 9d3d
0.088130765 -0.10058475 0.26293635 -1.1012899 0.12038511 -0.2086296 0.015123774 -0.36262316
0.03341279 -0.084614575 -0.08550439 -0.03395772 -0.0808416 0.09503639 -0.2233807 -0.07117179
-0.01977989 0.0016251535 -0.12381348 -0.08879425 0.025252819 0.0070804674 0.011193639 0.008558005
0.078817286 0.24794275 -0.0076981047 0.029651793 0.15374754 -0.025766592 0.03731759 -0.17333618
0.05764917 0.06557524 -0.08216574 -0.038290758 0.5477394 0.07231903 0.104105905 0.11506507
0.01098308 -0.32940507 -0.12631665 -0.20883912 -0.107507795 -0.07313196 0.021249235 0.040639706
0.095792964 0.15671757 -0.0066086124 -0.0070818616 -0.02765108 -0.012076855 -0.053385235 -0.16647716
0.099184304 0.027120056 0.05465424 0.05374776 -0.084212184 -0.09484598 0.5302466 -0.13138641
0.09894175 0.03761476 -0.1529845 0.046352133 0.019670432 -0.08749759 -0.032063328 -0.02124983
-0.016797066 0.10211825 0.20122711 0.11185514 0.07959896 0.018251633 -0.09287596 -0.79771996
-0.073940404 -0.10591293 -0.8415641 -0.12043853 0.020069147 -0.031820983 0.025738984 1.4022461
-0.09272325 -0.094592884 0.0021048598 0.102735095 -0.368869 -0.031183124 -0.12471905 -0.043515164
-0.063356034 -0.00095006614 0.035429776 -0.181782 -0.1104697 0.028664747 -0.022021176 -1.6001832
0.8203116 0.06752925 0.049060132 0.014091307 0.060773987 -0.060326576 -0.29881537 -0.06861149
-0.13480677 0.055742707 -0.055897024 0.33032793 0.043414515 0.07471486 -0.013329286 -0.08626976
-0.005372678 0.17557454 -0.8068088 0.103025116 -0.10470964 0.09515771 0.009446399 0.26033404
0.1555284 0.34822384 0.108710825 -0.120194174 -0.0912083 0.07174353 0.04004202 -0.0942159
-0.027149454 0.11516898 0.17265874 0.091886014 0.06627973 -0.12772457 -0.06294905 0.19216232
-0.10471951 -0.015917422 0.026678927 -0.05444249 0.08487788 -0.05846387 -0.11630438 -0.124226846
0.013738234 -0.055887118 -0.12247151 -0.0576847 0.02072178 0.056166857 0.095381826 -0.13776208
-0.043544166 -0.09820429 0.112287015 -0.019571012 -0.063830346 -0.13059686 -0.12916303 0.056016497
0.051128495 -0.0012640159 -0.018647566 0.45570582 -0.39947826 -0.052266374 -0.07667714 -0.19168709
0.11607104 -0.016317394 0.0907377 -0.7041794 -0.0923154 0.17321984 -0.019568413 -0.0023242072
-0.117452264 0.30307445 0.019839939 0.0030215085 -0.06764171 0.005587501 0.06023274 -0.058580335
-0.13197218 -0.12531134 0.54471403 0.043309633 0.094379425 -0.08009263 -0.05324053 0.6359687
-0.14411685 -0.09911419 0.08851791 0.22969742 -0.100479685 -0.034656733 0.07841604 -0.050090015
-0.11681649 0.40202123 0.11501959 -0.7809498 -0.74629736 0.11955027 0.08372826 -0.10246844
-0.12471115 0.120766096 0.08304842 0.025239557 -0.026306845 -0.13621587 0.10663283 0.0064771487
0.03179911 -3.9243665 0.1215849 -0.08329641 0.022946648 -0.13718933 -0.13978535 0.10834348
-0.1385103 0.019052764 0.06999672 0.10034663 -0.0024907116 0.09872606 -0.061079398 0.26973125
0.053910084 -0.08684352 -0.023959596 -0.10017004 0.060499076 0.08700374 0.05954699 -0.13448738
-0.07279868 -0.1507523 -0.02876356 0.20866483 0.15773347 0.06168109 -0.06343937 0.076735735

sequential_5/Hidden_3/MatMul f4 [64, 128]
00000000: 838a a5bd 6d89 9fbd 4c6a e8bd 9ddb ebbd
00000010: 431b 2b3e 2ec9 ae3d 0cdb eb3d 12b2 33bd
00000020: afe0 b1bd e74b f0bd 0004 8abb 5867 53bd
00000030: 767c a23d c72e 4f3d a7b1 153e e2a6 163d
00000040: 36e6 10be 59ec 3cbd c406 913d 39d2 a3bd
00000050: 8f51 003e 727a 223b 2a06 18bd c026 48bc
00000060: 7ffa e7bd 66d6 fa3d e3f1 e3bc cd6a acbd
00000070: 78f4 1cbe 10dd a2bc 1cb3 86bd 0acb 57bd
00000080: 8179 4cbe 2235 ca3d 3f49 7abe f95f 0cbe
00000090: f811 f6bb e374 333d 8d8e dc3d 9d99 003e
000000a0: 773b 20be 3347 a2bd 58d2 99bc 7adc 123e
000000b0: cff2 bd3c e384 ea3d 7375 1ebe 42b3 1fbe
000000c0: 93c3 89bc 8435 b1bd ce63 b63d 6a26 2dbe
000000d0: f907 1e3e be28 78bd d7af 453d 07f8 803d
000000e0: 0a3f 033e 9887 2abe 4706 213e 61e9 febc
000000f0: 0193 2dbd b8bf e0bd e33e 793d 72fd 14be
00000100: e4a9 e63d a6d9 9bbd b6f4 8dbd 52b9 0ebd
00000110: 3c86 a5bd de32 35be 190b f13d 6e0e 37be
00000120: 26c9 a9bd 75c1 f9bd d944 dd3c 7073 88bc
00000130: 5fe3 153e cb6d b2bd 8f84 163e 9486 f73d
00000140: 0ef8 843c 183b 2abe 8cb5 163e 798d 293e
00000150: 9b83 053e b1f5 a03d 0af1 2ebe 4b2b 123e
00000160: 07f6 03be 53be d93d 6e22 8bbd 3753 27be
00000170: f68b a43d e672 84bd ded1 023c 94ed 2abc
00000180: 85d6 f5bd 462b 53bd fa7b d4bd b4a8 1ebe
00000190: 74d7 4abe f184 cf3d eafd 29be 4819 f6bc
000001a0: 3cb2 1cbe 7488 273d d019 8f3d 32f6 8d3d
000001b0: d673 0dbe 756e 1ebe d090 6fbc 25ac b6bd
000001c0: 6bc7 16bd 81bb 373e beb1 9fbd 3a91 1c3d
000001d0: 7788 1d3e a10a 0c3d 2fe4 3fbe 37e2 e4bd
000001e0: 66e9 ba3d 16d2 46be 1288 c13d 4555 253d
000001f0: b8dc debd 645f 3b3d ae61 b3bd c606 aa3d
00000200: f184 25be 8dac f1bd fbbb 063e 0c82 20be
00000210: 494a e0bb 5756 cb3b c0ae 793c 5504 a6bd
00000220: 449c 233c c7cb 47bd ebda f53b 10b7 dabc
00000230: fd8b 86bd f74e 96bd 62f6 e4bd 2dff 693d
00000240: f7d0 083e 9689 87bc 29a7 213e 9d19 3abe
00000250: 5845 4fbd 5828 46bd 3bac 50be 38c2 693d
00000260: 3b13 49bb b132 043e 7ba2 bd3c 9b06 8c3d
00000270: c8d3 fb3d 6f1b 313e 007d 20bb 9f3c 4d3d
00000280: 9867 fcbc da51 263c 7cd4 933d 307d 7bbc
00000290: 96dd f6bd 21e0 d9bd 5355 52bc 9c57 683d
000002a0: 7c90 eb3d 6e5a 383d 675c 183e a2f9 09bd
000002b0: c933 0cbe 6bc1 273d f3c7 1e3e 82ce 84bd
000002c0: 651e cbbd 1a15 13be dabd 50be 6e45 02be
000002d0: f5a2 1e3e 11ad 1f3d 5736 82bd 10c5 10bc
000002e0: 7931 5c3d 445e 073e 88f8 ebbd 06dd 9a3d
000002f0: 3e68 d23d eaf3 fabd 1005 15bd 5973 22be
00000300: 3d69 223e f21a 243d 562e d8bd 78ed c3bc
00000310: 9246 33bd b780 853d 74ec 6d3d d0b0 cdbc
00000320: 2fb3 ddbd 8d49 91bd 9ab8 8d3d c6cc 693d
00000330: 5c86 3abe 0010 bbba d987 cb3d 2ccb 933d
00000340: 0a17 2bbe f29c d13d 9098 81bd 9d5f d7bd
00000350: 3823 d4bc 656b 7f3d a027 1cbd 29be 0abe
00000360: 0d58 9e3d 1ca6 8fbd 4af9 16be 70a1 4ebe
00000370: 0952 8dbd a743 0c3e 6f1a a6bd 4a72 9e3d
00000380: 7ddb ec3d edc3 2abe 97e2 2fbd 94ec f83c
00000390: 0536 35be 2e53 b13d ebed ff3d 8454 6d3d
000003a0: 7733 ccbd aa24 1bbe 1d32 babd b05f 8d3d
000003b0: c4b5 23bd 44ef 13be c955 2abe 647a 1cbe
000003c0: 4179 f0bd 615a 9c3d 37f4 10bd 54ec dfbd
000003d0: dee8 b33d f774 8ebc 4d72 763d da51 01be
000003e0: 33fe 00be f111 cfbd 8812 31bd 722d 14be
000003f0: f505 993d bd0b 1b3e e0c6 42bd 1ede ac3d
-0.0808306 -0.07789884 -0.113483995 -0.11516497 0.16709618 0.08534466 0.11516389 -0.043870993
-0.08685433 -0.11733227 -0.0042119026 -0.05161223 0.07933895 0.05058172 0.1461855 0.036780246
-0.14150319 -0.046123836 0.070813686 -0.07999081 0.12531112 0.0024792221 -0.037115254 -0.01221627
-0.11327075 0.122479245 -0.027825302 -0.08418808 -0.15327632 -0.019880801 -0.06577131 -0.052683868
-0.19968225 0.098734155 -0.24442004 -0.13708486 -0.0075094663 0.043812644 0.10769377 0.12558599
-0.15647684 -0.079237364 -0.018777058 0.14341918 0.02318707 0.114511274 -0.15474491 -0.15595725
-0.01681689 -0.086527854 0.08905755 -0.16909185 0.15432729 -0.06058573 0.048263397 0.062973075
0.12817016 -0.16653287 0.15725051 -0.031117143 -0.042376522 -0.109740674 0.06085099 -0.14549807
0.11262873 -0.076098725 -0.069314405 -0.034844704 -0.08082244 -0.17695186 0.11769695 -0.17876598
-0.08290319 -0.12195102 0.027010368 -0.016656607 0.14637516 -0.087123476 0.14699005 0.120862156
0.016231563 -0.16624105 0.14717692 0.16557874 0.13038485 0.07859362 -0.17084137 0.14274327
-0.1288682 0.106320046 -0.06793676 -0.16340338 0.08034508 -0.06467228 0.007984607 -0.01043262
-0.12003807 -0.05155494 -0.10375209 -0.15494043 -0.19808751 0.101327784 -0.16600767 -0.030041352
-0.15302366 0.040901616 0.06987345 0.06931724 -0.13813719 -0.15471824 -0.014621928 -0.08919553
-0.036811274 0.17942621 -0.077975735 0.038224436 0.15384088 0.034189824 -0.18739389 -0.111759596
0.091265485 -0.19416079 0.094497815 0.040364522 -0.108819425 0.04574527 -0.08758865 0.08302073
-0.16163994 -0.118004896 0.13157646 -0.15674609 -0.006844793 0.006205361 0.015239418 -0.08106295
0.009985987 -0.04877832 0.0075029037 -0.02669862 -0.065696694 -0.0733928 -0.11179806 0.05712812
0.13360964 -0.016545098 0.15786423 -0.18173833 -0.05060324 -0.04837832 -0.203782 0.057069987
-0.0030681628 0.12909962 0.023148766 0.068371974 0.122962534 0.17295621 -0.0024488568 0.05010664
-0.030811116 0.010151351 0.072182626 -0.015349671 -0.12053983 -0.10638452 -0.012837726 0.056724176
0.115021676 0.045008115 0.14878999 -0.033685334 -0.1369163 0.040955942 0.15505962 -0.06484701
-0.09917907 -0.14363518 -0.20384923 -0.12721798 0.1549185 0.03898341 -0.06358021 -0.008836046
0.05375812 0.13219553 -0.11522013 0.07561688 0.10273789 -0.12253554 -0.03638178 -0.15864314
0.15860458 0.04006476 -0.10555713 -0.023916945 -0.043768473 0.06518691 0.058086827 -0.025108725
-0.10825192 -0.07094107 0.069199756 0.057080053 -0.18215317 -0.0014271736 0.0993802 0.07216486
-0.16708007 0.10235013 -0.06327927 -0.10516284 -0.0258957 0.06235828 -0.038123727 -0.13549103
0.07731638 -0.07014105 -0.14743534 -0.20178771 -0.069004126 0.13697682 -0.081105106 0.07736643
0.115653016 -0.16676302 -0.042940702 0.030386247 -0.17696388 0.086584434 0.12496551 0.05794193
-0.09970754 -0.15150705 -0.090915896 0.069030166 -0.039968267 -0.14446741 -0.16634287 -0.15281063
-0.11741877 0.07634426 -0.03538915 -0.10933748 0.0878465 -0.017389758 0.0601676 -0.1262888
-0.1259697 -0.10110844 -0.043230563 -0.14470461 0.07471839 0.15141197 -0.047552943 0.08440803

sequential_5/Hidden_4/MatMul f4 [32, 64]
00000000: fb6c 2a3e 7f61 4bbe 8f81 403e f4cf cc3d
00000010: a2bb 6f3e f0da a8bd bd6d e0bd 462c 90bc
00000020: 0053 913d b61b 67be 978d 81bd 9b17 413e
00000030: a089 f6bd 6556 21bd 88c9 9bbd 0f43 833d
00000040: e83a 0dbe a35d 003d ac50 3bbe 580c a4bd
00000050: 73e3 2a3e 40a7 89bc 7670 45be ad24 683e
00000060: be39 333e de69 4abe f149 47be 1899 bcba
00000070: c640 043e 230f 96bd cfa4 2d3e 90ed 81bd
00000080: 0e80 04be 560d 283e 09ba 7abd e904 6bbe
00000090: 02a4 b83d 9148 033e 81d0 f5bd cc23 e9bd
000000a0: 8d84 cfbd b554 1ebe 6e89 12be daa6 70be
000000b0: 3029 313e 7b98 b5bd 2957 abbd 5877 903e
000000c0: 701f 7b3e b47f d8bb 7a19 1d3d 6e1e 6fbe
000000d0: 2cc2 80be b302 ec3d 8593 13bd e387 39be
000000e0: edad 08be 0786 4dbe 2971 323e 00cb 163e
000000f0: fa20 353e a050 553e 8d82 043d 5dca 70bd
00000100: e09a 83bd 83a3 62be 3257 b23d 60f2 b33d
00000110: 4a78 f4bd b266 aebd 9e6f 963d b76e 163e
00000120: 1845 a43d 8819 a83c 8e99 1dbc 6b05 ce3c
00000130: 9c10 5abd b9c9 ce3c f346 173d ed83 843d
00000140: 9914 83bd e885 5dbe e16f 0abe c5ab 383e
00000150: 2b29 15bd 3e1d f93c d8dd f33b 7433 ddbc
00000160: aceb 563e dbc8 903e cb95 2bbd 9952 323e
00000170: 73d4 96bc 3507 c53d e058 063e 7234 403d
00000180: 6390 1bbe 58e0 28be 5e7a 2ebe f739 eabd
00000190: e123 13be 8e11 2bbd 8fbf 9c3e 6d57 1dbe
000001a0: 8b2d dc3c 55bf 283e 38cd 00be 2f25 793d
000001b0: ce96 b7bd 63dd 833e 7cdf 2b3e 3520 18be
000001c0: 9cc0 06bc dd49 10ba 96d3 82bc f679 aa39
000001d0: c7a9 49be 72b2 1a3e 89cf 12bd 3051 9d3d
000001e0: 725d 103e 9890 9cbd 89f2 543e 398c 683e
000001f0: 5161 443e cacf 25be e4b8 7e3c b3b8 4a3e
00000200: 1974 533e 77c9 683e a1bb 58be 0541 dbbc
00000210: fac2 aabd 5413 7fbe 9be5 ddba 32e8 87be
00000220: 3291 67bd a8e7 45be a407 f5bc 08ba b7bd
00000230: 808e 66bc e086 23be 7851 353e f897 4b3e
00000240: ff76 6abc bb79 e0bd 8257 1e3e b02e 98bc
00000250: b5c1 71be c03d e6bc 0fbc d63d f896 3a3e
00000260: 12e9 dcbd 7cab 213e a323 45be f85c b83d
00000270: 68a3 babb eed2 85be 7980 493e 6ca4 5f3e
00000280: d49e 603e 703c 293d 906d 653d 1e29 103e
00000290: 8a22 963d bd1c 6fbe 3a51 0e3e 6f08 12bc
000002a0: e430 1abe 6a07 4dbe 84f5 83bb 84f5 753e
000002b0: 3515 613b 4693 2cbe 0e1d 273e 2b98 55be
000002c0: 382f b1bd e56c 2e3e 0053 50bc fb9d 583e
000002d0: 4540 683e 1c35 6fbe 4130 5e3d 93e1 143e
000002e0: 0b1e 75be 8a75 323e 51ee 84be cbfe 0e3e
000002f0: c80b 94bd 00f6 6cbe 63f3 aabd 1571 babc
00000300: 594b e4bd 5cc4 783d 6d68 07bd ded0 50bc
00000310: 3d5b 19bd f132 a3bc 80c0 4d3d fa43 62be
00000320: 4847 153e 8a74 c3bd fac1 3f3e 8b95 633d
00000330: 3baf a3bc 9e2a 023e b0f2 f23d 6cb8 5c3e
00000340: 2d49 973a dfb7 443d 5577 403e e064 fcbd
00000350: f2fa 25be 6eea c8bd ae2d 063e bf5b 86be
00000360: 7d59 63be e666 47be 8dea 9bbc a602 3abd
00000370: 5e7e bdba 0e5a b6bc 8a9a 1fbe 55af 183e
00000380: 6b53 02be a5ce 213e 9397 7abe 906c 1cbe
00000390: 8d3f 09bc 46d9 50be b639 f33d 7123 d5bd
000003a0: c28a 1b3e cec9 b23d e5d5 abbe 977e b23d
000003b0: 02c3 a8bc 39fc 3b3e 2bac 07be 5905 a13e
000003c0: 6818 12be 1a17 70be 9876 17be 6c81 503e
000003d0: 4508 38bc 0770 3c3d 529a 1d3e b5a3 b0bd
000003e0: 8ab2 213e 52e1 223e d994 fc3d 7967 9cbc
000003f0: 4e09 2d3e 456b e9bd c5a1 083e 5434 4fbe
0.16643135 -0.1986141 0.18799423 0.100006014 0.2341142 -0.08244884 -0.10958431 -0.017599236
0.07095909 -0.22569165 -0.06325834 0.18856661 -0.12037969 -0.039389033 -0.076067984 0.06409275
-0.13792002 0.0313393 -0.18292493 -0.08010167 0.16688327 -0.016803384 -0.19281182 0.2267024
0.17502496 -0.19766948 -0.194618 -0.0014388887 0.12915334 -0.07327106 0.169574 -0.063441396
-0.12939474 0.16411337 -0.061212573 -0.22951092 0.09015657 0.1282065 -0.120026596 -0.11383781
-0.10132704 -0.15462 -0.14310238 -0.23501149 0.17300868 -0.08866974 -0.08366234 0.28216052
0.24523711 -0.0066070203 0.038354374 -0.23351452 -0.2514814 0.11523952 -0.036029357 -0.18118243
-0.13347597 -0.20070659 0.1742598 0.14725876 0.17688361 0.20831537 0.032351065 -0.05878674
-0.064260244 -0.22132687 0.087080374 0.08786464 -0.11937006 -0.08515681 0.07345508 0.14690672
0.08020991 0.020519987 -0.00961913 0.025149068 -0.053238496 0.025242673 0.036932897 0.06470475
-0.06400413 -0.21633112 -0.13519241 0.18034275 -0.036416214 0.030409452 0.0074422173 -0.027002074
0.20988339 0.2827824 -0.0418909 0.17414321 -0.01841185 0.09620515 0.1311984 0.046925016
-0.15191798 -0.1649183 -0.17038867 -0.11436837 -0.14369155 -0.04176479 0.30614898 -0.15365382
0.026877185 0.16479237 -0.12578285 0.060826477 -0.089643106 0.25754842 0.16784471 -0.14856036
-0.008224633 -0.00055041705 -0.015970033 0.00032515795 -0.19693671 0.15107134 -0.035842452 0.07681501
0.14098147 -0.076447666 0.20795645 0.2270974 0.19177748 -0.16192546 0.015547011 0.1979702
0.20649756 0.22733103 -0.21165325 -0.026764402 -0.0833797 -0.24909717 -0.001692939 -0.26544338
-0.056534953 -0.19326651 -0.02991087 -0.089710295 -0.014072061 -0.1596942 0.17706859 0.1988219
-0.014310597 -0.10960718 0.15463069 -0.01857695 -0.2360905 -0.028105617 0.10485088 0.18221653
-0.10786642 0.15788072 -0.19251876 0.090021074 -0.005695749 -0.2613749 0.19677915 0.21840066
0.21935588 0.041317403 0.05601269 0.14078185 0.073308066 -0.23350807 0.13898173 -0.008913144
-0.15057713 -0.2002236 -0.0040270705 0.24019438 0.0034344916 -0.16853055 0.16319677 -0.20858829
-0.086515844 0.17033727 -0.012715101 0.21154015 0.22680767 -0.23360103 0.054245237 0.14539175
-0.23937242 0.1742765 -0.2596307 0.13964383 -0.072288096 -0.23140717 -0.083472036 -0.022759
-0.11147184 0.060734138 -0.033058573 -0.01274511 -0.037440527 -0.019921752 0.05023241 -0.22096244
0.14577973 -0.095437124 0.1872634 0.055562537 -0.019981017 0.1271157 0.11862695 0.21554726
0.0011542194 0.048026916 0.18795522 -0.12323928 -0.1620901 -0.09810339 0.13103363 -0.26241872
-0.22202106 -0.19472846 -0.019032741 -0.045412682 -0.0014457216 -0.022259738 -0.15586296 0.14910634
-0.12727134 0.15801485 -0.24471883 -0.15275788 -0.008376968 -0.20395383 0.11876242 -0.104071505
0.1518965 0.087298974 -0.33561626 0.08715551 -0.0206008 0.18357934 -0.1324927 0.31449392
-0.14267123 -0.23446313 -0.14791334 0.2036187 -0.01123244 0.046005275 0.153909 -0.08624975
0.15790763 0.15906265 0.12333078 -0.019092308 0.1689808 -0.11397413 0.1334296 -0.20234805

sequential_5/Hidden_5/MatMul f4 [16, 32]
00000000: 42a5 31bc 5e42 9c3e 3dca 323e 905c 14be
00000010: 419b 993e 7b44 853e 9d83 09be ed3b a8bd
00000020: 0a68 123e 6b3a 7dbe c6ef d2bd 3ecc 72bb
00000030: 92d5 04be 4905 6e3d 3785 b93d d798 b23f
00000040: d9b0 acbe 543a ce3c b9d5 28be 5d4d 3f3e
00000050: c390 de3e 2b59 acbc a895 5ebc c1e6 a93b
00000060: f2d1 8abc 8c30 b13e 8bbc b3bc 6bc9 823d
00000070: c3f4 d7bb e5b1 b5bd 69f7 113e 8e39 533e
00000080: 1527 bc3c 7ce5 34be bb65 b13e 66ce 53bd
00000090: e79b 403d 88b5 0abe abf0 1ebe 36e0 87be
000000a0: 3efe 5ebe 50ac 7f3d 5c63 96be 59c8 87be
000000b0: 5c33 113e 64fc 7abc 202d 623e d640 5cbe
000000c0: 5348 813e 87b5 96be b57e 95bc ade3 00be
000000d0: 3fbd fe3c 1ec0 643d fb3a a9be ccf2 79bc
000000e0: 7617 8abe 9006 7ebd 1a63 86bd 0b11 423e
000000f0: 128f 34be bd97 6f3e 22e9 ac3e c95b 603e
00000100: 2b51 863d 9c00 68c0 1c21 afbe 6efa 343d
00000110: 0096 0c3c 669d 8dbe f8f3 8dbe 15ca 2d3e
00000120: 3e9c b23e efe6 593c 3ea5 9fbe 9ad2 843d
00000130: f8a0 093e 6920 4c3e 3100 493e d0fe 8cbe
00000140: 5778 dcbb bd61 db3c 4627 a23d c8e8 a53e
00000150: d9d9 1d3d b65a 123e babf 6dbe a653 89bf
00000160: 3baf 183e fc7a ee3d 3ad1 4d3e 29da 7c3d
00000170: 742d 7fbe 3e7d 623e de25 b03e c0d9 a13e
00000180: 10dd ccbc f187 dcbe 68cc 55be 185c 9bbe
00000190: e42a 92bd 3756 99be 0150 a4be e731 b33e
000001a0: 7eac e93c b002 77bd 810b 2abe 5271 603e
000001b0: 18f7 1dbd 4d59 ac3e e2ca 23be 905f 923c
000001c0: 41c6 923e 1085 b03c 35fd 9abd af5a adbe
000001d0: 5064 d1bd ceab 733e 3026 4dbe 3a77 bdbe
000001e0: ac6d c13d b856 053e 1f92 b53d fd04 b9be
000001f0: 08d1 90bd 78dd 8ebd c0fa d93d 622e f63d
00000200: 7b5f 0bbe 7c1c 02bd 5427 d7bd 6e29 f5bd
00000210: 5a10 a2be 56ab 2d3e 1d1a 8e3e a953 9bbd
00000220: d143 133e 18a8 97be e5cc 8dbe 3de9 6e3b
00000230: eaf9 6d3e f589 a53e 9add 53be a0bd 003d
00000240: 135d 993e ae09 743e eaa8 93bd f0d6 cabc
00000250: 9031 29bd 8000 603d 00e1 08be 4def 38be
00000260: a8b7 3f3d 68d8 0d3e d1b9 9bbe 8996 cc3c
00000270: a522 4fbe a849 adbe 5387 aebe a9a3 1dbe
00000280: 9ce1 cd3b b96c 1b3e 8486 da3c 2866 833e
00000290: 8049 86be 751b 9ebe 927d d8bd 57ce ad3e
000002a0: 6879 313e 5959 5abe 22a5 f53d 6e3e 94be
000002b0: e926 85bd 46ec aebd 5fc2 483e 8ec2 1abf
000002c0: 185d 9abe b6f8 fa3d 839a babe 5aa1 a93e
000002d0: 6ae0 0e3e 3354 023e 7469 5bbd 35f5 3b3e
000002e0: 3fad 0abe 4169 503e 3710 53be 3bb4 8f3e
000002f0: bab5 48be 2784 dabc c615 9d3e f916 3dbe
00000300: 100f 99be d5a6 ed3c 94f3 f8bb 2b3b 303e
00000310: b243 cebd 25b2 8f3e 5fea 3b3e 5bb0 e93d
00000320: eadb 253e a3ab 7ebd 5e33 fcbd 4fac 5c3e
00000330: d3f4 8dbe d48a a6be f6fc 2f3e 0165 3a40
00000340: 72d8 f83d 84e9 a5be c664 3dbe d94e 06be
00000350: 9278 813f efed 353e 5043 71bd 81bb 583e
00000360: befe 3f3e 1fe0 353d e059 c63e a1c1 6e3e
00000370: df68 84be 7272 883e f06a 8d3e 0f4a 8ebe
00000380: f522 813e 0380 2b3e 69f3 35be 1334 3a3e
00000390: cea6 98be f770 4ebe dc46 753e 628e a73e
000003a0: 2306 abbd cc3c d13e ce33 8bbe 5b4f 043c
000003b0: c2ec 8b3e f285 49be 08c4 293d 1c82 b93f
000003c0: bb5e babe 862e a43d d41c 9d3e 9678 aabc
000003d0: 8db4 5cbe 471a 43bd 5a94 c93d 6a35 683e
000003e0: 0ff1 fd3d 9333 9dbe 4366 3dbe da0c afbe
000003f0: 21b8 313d 1991 f93d d10e 46be e152 1e3e
-0.010842623 0.30519384 0.1745996 -0.14488435 0.30001262 0.2602881 -0.13429113 -0.08214555
0.142975 -0.24729316 -0.102996394 -0.0037048007 -0.12972096 0.05811051 0.09058612 1.3952893
-0.33728674 0.025174297 -0.16487779 0.18681855 0.4346982 -0.021038612 -0.0135854855 0.0051849787
-0.016945813 0.3460735 -0.02194049 0.06386074 -0.006590457 -0.08871821 0.14254536 0.20627424
0.022967855 -0.17665666 0.34647927 -0.05171051 0.04702368 -0.13545811 -0.15521495 -0.26538247
-0.21776673 0.06242019 -0.2937268 -0.2652004 0.14179748 -0.015318964 0.22087526 -0.21509108
0.25250491 -0.2943537 -0.018248895 -0.12586851 0.031096099 0.05584728 -0.3305281 -0.015255641
-0.26971024 -0.062017977 -0.06561871 0.18951814 -0.17632702 0.23397727 0.33771616 0.21910013
0.0655845 -3.6250372 -0.34204948 0.04418414 0.008580685 -0.27659148 -0.27725196 0.1697162
0.34884828 0.013299688 -0.31180757 0.064854816 0.13440311 0.19934238 0.1962898 -0.27538157
-0.006728213 0.026780004 0.07917647 0.3240416 0.038537834 0.14292416 -0.23217669 -1.0728652
0.14910595 0.11644551 0.20099345 0.06173149 -0.24919683 0.22118089 0.3440389 0.31611443
-0.025007755 -0.43072465 -0.20878756 -0.303437 -0.07137087 -0.2994859 -0.32092288 0.3499901
0.028524633 -0.060305297 -0.16605951 0.21918228 -0.038565725 0.3366188 -0.15995362 0.017867833
0.2866688 0.021547824 -0.07567827 -0.3385825 -0.10224211 0.23796007 -0.20034099 -0.37005025
0.094447464 0.13021362 0.08865761 -0.36136618 -0.070711195 -0.069758356 0.1064353 0.120205656
-0.13610642 -0.031765446 -0.10505548 -0.11970793 -0.316531 0.1695989 0.27754298 -0.07584316
0.14381339 -0.29620433 -0.27695385 0.0036454939 0.23239866 0.32331815 -0.20690003 0.03143084
0.29953822 0.23831818 -0.07209952 -0.024760693 -0.041307032 0.054687977 -0.1336708 -0.18060036
0.046806008 0.13852084 -0.30415204 0.024974125 -0.2022806 -0.33845258 -0.3408762 -0.15394463
0.0062829982 0.15178193 0.02667547 0.25663877 -0.2622795 -0.30880323 -0.10570826 0.33946487
0.17331469 -0.21323146 0.11994387 -0.2895388 -0.06501562 -0.08541159 0.19605397 -0.60453117
-0.3014915 0.12254469 -0.36446008 0.33130914 0.13952795 0.12727432 -0.053567365 0.18355258
-0.1354265 0.20352651 -0.20611654 0.28067192 -0.19600573 -0.026674343 0.30680674 -0.18465795
-0.29894304 0.029010216 -0.007597396 0.17210071 -0.100715056 0.280656 0.18351124 0.1141059
0.16197172 -0.062175404 -0.12314485 0.21550106 -0.2772585 -0.32527792 0.1718634 2.9124148
0.12150659 -0.3240472 -0.18495473 -0.13116015 1.011492 0.17766546 -0.058902085 0.21165277
0.1874952 0.04440319 0.38740444 0.23316051 -0.2586126 0.26649815 0.2762065 -0.27790877
0.25221983 0.16748051 -0.17768635 0.18183927 -0.29814762 -0.2016028 0.23952812 0.32725817
-0.0835078 0.40866697 -0.2718796 0.00807556 0.2732907 -0.19680002 0.041446716 1.4492831
-0.364004 0.08016686 0.30686057 -0.020809453 -0.2155325 -0.047632482 0.09842749 0.22676626
0.12399494 -0.3070341 -0.18496041 -0.34189492 0.04338849 0.12185878 -0.1934159 0.15461303

sequential_5/Out_1/MatMul f4 [1, 16]
00000000: 4048 d33e cbaa 03bf 92aa 1abe 5e52 373e
00000010: 10c7 f8be 989a f93c 7b3d a43f 5ffb 063e
00000020: 3476 2e3d 61ac 713e d0d2 383c a1ec b73d
00000030: fc6e 0ebe 4d90 b1ba 389f cfbe 3835 63be
0.4126606 -0.51432484 -0.1510413 0.17902514 -0.48589373 0.030469224 1.2831262 0.13181828
0.042593196 0.23600914 0.01128073 0.0898068 -0.13909525 -0.0013547033 -0.40551162 -0.2218827

sequential_5/Scaler/mul;sequential_5/Hidden_1/MatMul;sequential_5/Hidden_1/Relu;sequential_5/Hidden_1/BiasAdd f4 [256, 3]
00000000: 61b3 05b5 6247 b439 97cf 5fba f26b 1335
00000010: df7f b13b 0f9b 17bd 1c0d 6c35 86fc 04bd
00000020: 2281 5b3b 6263 9a35 a545 3bbc 9026 14bd
00000030: 6d38 2eb5 5108 06bc 08f2 16bb 8b97 2e35
00000040: 2c2a 7c3b d5ef b6bd 276f c035 d8bf c13a
00000050: 6e79 8b3b 48e9 afb5 2879 83bb 311d 663c
00000060: a490 3ab3 9da4 8e3b bc88 1cbb 67c2 5635
00000070: e05d e43b 1721 e93b 4070 e9b6 a83b 453b
00000080: 4f6d 5f3a 6355 8234 e0cc d5b9 6fa1 58bb
00000090: 5ab7 40b5 fd5a 2abb 30cd 04bc a052 76b4
000000a0: 8faa 493b 50b7 41bc 3a4e 6335 634c 2dbc
000000b0: 2be6 60bd 32e7 36b2 9a80 18bc f1f8 a33b
000000c0: 4c94 1c35 1092 6e3b d08b c0be e736 beb2
000000d0: f565 9739 6a92 32bc aa27 ffb3 2b5d a7bb
000000e0: 6b74 e9bb 4d5c e335 5f29 b23a 0adf 563a
000000f0: ca1f 16b5 61e8 08bb d9b6 81b9 68b7 3a33
00000100: 3c5d a5ba 0054 51bc afa2 d333 de7c c9bb
00000110: dd8c 6a3b e390 cbb4 5073 02bc c4bf 2abc
00000120: 5c91 6832 2c47 e6bb 6744 6c3b a6c8 8d35
00000130: ffe5 0dbc 742f a2bc 64a9 8535 6556 1cbc
00000140: ce30 6bbc a105 8ab5 3f2c 3cbc e2ba 963b
00000150: b893 3235 1b50 f6bc fd41 093b 4ddf dab4
00000160: 2033 ee3a 591a 7cbb c2b5 c934 d5ad 85ba
00000170: 96b9 ab3a 799d 6035 b546 103c eac7 3c3c
00000180: 19f4 f235 c1dd a03b 3867 13bc e45d 3633
00000190: 050f 0dbb bf0b e4bb 75d0 1f35 4795 873b
000001a0: 497f 40bd 0c18 d9b4 55c4 1d3c 4032 81ba
000001b0: b9b6 3835 c572 77bd f4a4 ff3a 924b 3ab4
000001c0: e6ea 0bbc 02fd 91bb 938a 8135 8e15 a93a
000001d0: a0a5 323c 1a1e 55b4 adf8 7cb9 ca30 47bc
000001e0: bf2c 08b5 d592 f0ba 6cf8 5ebb 340f 79b4
000001f0: d166 873b 4376 2ebc d1a1 aa35 ec0f 043b
00000200: 3254 283b e7af 8635 856f 853b 41f8 223c
00000210: 3075 6cb5 1356 e4bb ffc9 9dba 81ad 77b4
00000220: 3cc7 81bc cac9 803c c35e 5db4 a2e0 a2bb
00000230: e611 c7b9 c54f 3db5 5322 b5ba 6aec a13a
00000240: 7368 3e35 eae1 ffbb b5bb 53bc 060f 8935
00000250: 557d 853b f1e2 1a3c c24a 8934 3495 34bb
00000260: 1210 a9bb a1ab d5b5 2a72 91bb 6c60 c639
00000270: 4357 afb4 3a74 05bc 269b 7b3a ee46 f9b4
00000280: e77c 2139 1519 2fbc 188f 98b5 2507 db3b
00000290: f798 a9bc 8c11 7135 f0b0 0c3c f38b 313c
000002a0: bbc3 1cb5 ecbb e2ba e328 b5bb c1e4 c235
000002b0: 20b7 d63b 3e4f 1a3b 4817 12b5 1bbf e7b8
000002c0: 2350 14bc 10c5 ae34 a2dd 60bc 9d92 123c
000002d0: 8e4d 2ab5 bb12 c0ba 8a98 58bc 9492 2db5
000002e0: ec3f 1fbc f968 a8bb 0736 4635 a7d4 56bd
000002f0: 6d98 303b fe90 21b6 361c 533b 88ad 85bb
00000300: f2f3 9735 bed7 dc3b 28e0 873b 9daf aab5
00000310: 1131 0dba 7f3f d83b f056 dc35 8b4d a03b
00000320: b317 213c f97e cd35 88c2 6e3b ebe9 92bb
00000330: d6c7 c835 ad56 d33b f436 e33b b478 abb4
00000340: 74f6 68bb c64b 3abc 2949 9cb5 3395 3d3c
00000350: 5c25 13bc 6f81 6db4 599b ddbb 84c7 1fbc
00000360: 9589 91b4 87e9 7abb fed4 2ebb 82c5 10b5
00000370: 39ba ccbb 7f3f 51bc ea16 6035 93f0 dcbc
00000380: c59d 893b 6fde 25b6 b367 cb3b bf92 0b3b
00000390: f162 5cb5 c280 cdbb a294 23ba fecc a4b5
000003a0: 0d0f 3d3c 4586 33bc 7585 ceb6 b629 963b
000003b0: 3ae9 2b3c 1154 a235 c72f 25bc 6c18 e2bc
000003c0: e4de 4eb6 0616 ad3b 744b ca3b 03a2 d2b2
000003d0: 34a9 d9bc 2939 ad3b dcd1 3e35 c28f 143c
000003e0: aeea 9638 3468 1c35 409c b93b ebe6 08bd
000003f0: 1c97 09b5 e206 1dbc 08c2 ae3a e178 b6b6
-4.980739e-07 0.0003438546 -0.0008537708 5.491885e-07 0.0054168548 -0.03701311 8.793593e-07 -0.032467388
0.0033493717 1.1502818e-06 -0.011430179 -0.03616959 -6.490216e-07 -0.008180694 -0.0023032445 6.5040575e-07
0.0038477285 -0.08932463 1.4337464e-06 0.0014781905 0.004256419 -1.310641e-06 -0.0040122457 0.014045046
-4.343805e-08 0.0043531195 -0.002388521 8.0004105e-07 0.0069691986 0.0071145403 -6.9570087e-06 0.0030095372
0.0008523063 2.4276514e-07 -0.0004077917 -0.0033055206 -7.1792385e-07 -0.0025994175 -0.008105561 -2.2940594e-07
0.0030771827 -0.01182349 8.4677924e-07 -0.010577294 -0.054907005 -1.0646362e-08 -0.009308005 0.0050040414
5.833033e-07 0.0036402978 -0.37606668 -2.2143878e-08 0.00028876928 -0.010899166 -1.1881578e-07 -0.005107542
-0.007124474 1.6939681e-06 0.0013592652 0.00081966876 -5.5925614e-07 -0.0020890462 -0.0002474103 4.3473307e-08
-0.0012616287 -0.012776375 9.855045e-08 -0.0061489185 0.0035789527 -3.7917115e-07 -0.007962063 -0.010421697
1.3537228e-08 -0.0070275273 0.0036051513 1.0563715e-06 -0.008660792 -0.019798018 9.958571e-07 -0.009542082
-0.014354898 -1.028344e-06 -0.0114851585 0.004599915 6.6525126e-07 -0.030067494 0.0020943873 -4.0768137e-07
0.0018173195 -0.0038467853 3.7571414e-07 -0.0010198901 0.0013101574 8.3675656e-07 0.00880592 0.011522273
1.8101447e-06 0.0049092476 -0.008996777 4.246057e-08 -0.0021523845 -0.006959408 5.953546e-07 0.0041376683
-0.04699639 -4.0436896e-07 0.009629329 -0.0009856895 6.881124e-07 -0.060412187 0.0019504116 -1.7350092e-07
-0.008539891 -0.0044552097 9.651579e-07 0.00129001 0.010903746 -1.9848122e-07 -0.00024125232 -0.012157628
-5.072906e-07 -0.0018354306 -0.0034022583 -2.3195463e-07 0.0041321297 -0.010648313 1.2713082e-06 0.0020151092
0.002568495 1.0034972e-06 0.004072132 0.009946884 -8.808738e-07 -0.0069682687 -0.0012038349 -2.3066788e-07
-0.015842073 0.01572122 -2.0616703e-07 -0.004970626 -0.00037969573 -7.0524067e-07 -0.0013819434 0.0012353782
7.093251e-07 -0.0078089135 -0.012923171 1.0211668e-06 0.0040737786 0.009453521 2.5572632e-07 -0.0027554752
-0.0051593864 -1.5919687e-06 -0.0044386582 0.00037837343 -3.265978e-07 -0.008145386 0.0009598009 -4.6431472e-07
0.00015400686 -0.010687132 -1.1366528e-06 0.0066842013 -0.020702822 8.980503e-07 0.008587107 0.010836589
-5.8399354e-07 -0.0017298437 -0.0055285557 1.4520703e-06 0.006552592 0.0023545767 -5.4423117e-07 -0.000110505345
-0.009052309 3.2553407e-07 -0.013724716 0.008946088 -6.344279e-07 -0.001465402 -0.013219962 -6.466082e-07
-0.00971983 -0.005139467 7.383937e-07 -0.052448895 0.0026946322 -2.4075266e-06 0.003221286 -0.0040795244
1.1321374e-06 0.0067395857 0.0041465946 -1.2717097e-06 -0.00053860346 0.006599366 1.641658e-06 0.0048920563
0.0098323105 1.5310644e-06 0.0036431868 -0.0044834516 1.4959321e-06 0.0064495415 0.006934041 -3.1939055e-07
-0.0035547288 -0.011370605 -1.1644198e-06 0.011571216 -0.008981075 -2.2119433e-07 -0.0067629036 -0.009752158
-2.710846e-07 -0.0038286166 -0.0026677246 -5.393159e-07 -0.0062477854 -0.012771486 8.3479847e-07 -0.026970183
0.004199716 -2.471639e-06 0.0062074303 0.0021297184 -8.2100365e-07 -0.0062714526 -0.00062401046 -1.2278613e-06
0.011539233 -0.010957305 -6.154815e-06 0.004582609 0.010492617 1.2094407e-06 -0.010082192 -0.027599536
-3.0826131e-06 0.0052821664 0.0061735455 -2.4520892e-08 -0.02656994 0.005286355 7.10859e-07 0.009067478
7.19627e-05 5.8266164e-07 0.0056643784 -0.033423346 -5.125637e-07 -0.0095841605 0.0013332972 -5.438095e-06
