SMArtIInt/Resources/ExampleNeuralNets/model_small.tflite (tflite, 14192 bytes, 7 tensors)

sequential_4/Hidden_3/BiasAdd/ReadVariableOp/resource f4 [16]
000000 00 00 00 00 5f d4 12 3c 5f c7 2f 3c e3 50 80 bb
       0.0 0.008961766 0.010728686 -0.0039158924
000010 c9 62 d0 3b 07 28 77 be ed 5c aa 3c 7b 15 04 bd
       0.0063594324 -0.24136363 0.020796264 -0.032247048
000020 2a f6 2c bd b9 9f d0 3b 08 b6 6f bd 27 91 11 be
       -0.042226948 0.0063666967 -0.058523208 -0.14215527
000030 68 e2 4c bd ea 1c 02 bd 71 bc e5 bc 71 97 47 bd
       -0.050020605 -0.031765856 -0.028043957 -0.04872841

sequential_4/Hidden_2/BiasAdd/ReadVariableOp/resource f4 [32]
000000 c9 00 39 bd 4c 39 57 bb 65 3a 65 bd 09 67 37 bd
       -0.045166764 -0.0032840548 -0.055963892 -0.044775996
000010 8e 5f 13 3c 70 79 1c 3c ae 04 9b bd d8 fe 01 bd
       0.00899495 0.009550437 -0.07569252 -0.03173718
000020 82 2f 92 bd 8d 45 7f bd 70 b7 65 3d 8f c9 b7 3a
       -0.07137968 -0.06232219 0.056083143 0.0014021861
000030 3b 1b 02 bd fa f1 7e 3a 3f 6d 9a bc c6 5e b1 bc
       -0.03176425 0.00097253884 -0.01885092 -0.021651637
000040 00 00 00 00 2f e6 35 bd 89 d2 ac bc 18 14 4c 3d
       0.0 -0.044408973 -0.021096485 0.04982385
000050 28 ad 00 3d 0a 0c 4e bc e2 d6 80 bb 1b e9 09 3d
       0.031415135 -0.0125761125 -0.003931866 0.033669572
000060 1e b5 d1 be 0e 5b 20 3d 58 f0 a5 bc 65 cd 64 3b
       -0.40958494 0.039149337 -0.020256206 0.0034912464
000070 f9 f0 6b bd f2 7e 76 be 9d 9c f3 bb 00 00 00 00
       -0.057602856 -0.24071863 -0.0074344412 0.0

sequential_4/Hidden_1/BiasAdd/ReadVariableOp/resource f4 [64]
000000 d1 c1 6d bd bd bc cc 3c 00 00 00 00 bf 17 a7 bc
       -0.058046166 0.024992341 0.0 -0.020397065
000010 cc 2b 51 3b 60 99 15 bc 00 00 00 00 6c d2 16 3b
       0.0031916974 -0.009130806 0.0 0.0023013605
000020 a4 b3 f8 bd ac 7f e5 bc 00 00 00 00 ed 49 cb bb
       -0.12143639 -0.02801498 0.0 -0.006203881
000030 00 00 00 00 00 00 00 00 00 00 00 00 00 00 00 00
       0.0 0.0 0.0 0.0
000040 b8 53 2a 3d 77 75 21 bd 13 77 60 bc 05 51 ef 3d
       0.041583747 -0.039418664 -0.0137002645 0.11685375
000050 1c b1 6f 3d 0e e9 45 3c 98 c9 86 bd 41 be a0 3c
       0.058518514 0.01207949 -0.0658142 0.01962197
000060 13 51 53 bd bd a0 50 bc 5b d0 ad bc fa d2 8e bb
       -0.05159099 -0.0127336355 -0.021217516 -0.0043586465
000070 2d 20 57 3c 82 52 95 bc 00 00 00 00 00 00 00 00
       0.01313023 -0.01822782 0.0 0.0
000080 33 5b 3c bd e5 ab 14 bd 4b ed 48 be e1 6b b8 bd
       -0.04598541 -0.036296744 -0.1962177 -0.09004951
000090 22 fe 51 bd 2a 38 10 be 3c 72 13 bc 9c f9 44 3d
       -0.05126775 -0.14083925 -0.008999404 0.04808961
0000a0 00 00 00 00 28 9c 6e bd 9c 49 5b 3c fc f9 a4 bb
       0.0 -0.05825439 0.013384249 -0.0050346833
0000b0 00 00 00 00 00 00 00 00 b1 01 a5 bb 6a a7 5d bc
       0.0 0.0 -0.005035602 -0.013528684
0000c0 9d 3e d6 bc 56 34 d5 bb d8 d2 b8 3d 85 70 06 bc
       -0.026152903 -0.006506483 0.0902459 -0.008205538
0000d0 d2 49 26 bb c6 20 5c be 5e ec ab 3c a4 a4 1f be
       -0.002537359 -0.21496877 0.020986732 -0.15590149
0000e0 00 00 00 00 4f 37 05 3d c7 36 70 3c 00 00 00 00
       0.0 0.03252345 0.014661497 0.0
0000f0 5d 01 f3 bc 4f 1b 52 bd f1 47 da 3d 7e fa fa bc
       -0.029663736 -0.051295575 0.10658253 -0.030637022

sequential_4/Hidden_2/MatMul f4 [32, 64]
000000 10 40 4b 3e a8 00 24 be 00 3a 7e 3c 3a aa e2 bd
       0.19848657 -0.16015875 0.015516758 -0.110676244
000010 71 3f 5f bd f8 33 c7 3d 08 61 80 bd 92 d0 dc 3d
       -0.05450386 0.09726709 -0.06268507 0.10781969
000020 dd 4e 0e 3e b0 14 59 be 28 3a 72 3e f1 a9 f4 bd
       0.13897271 -0.21199298 0.23654997 -0.11946476
000030 58 f9 d6 bd 08 46 d1 bd 20 b5 cb 3c 60 a6 5a bd
       -0.10496777 -0.102184355 0.02486664 -0.053381324
000040 40 32 18 bd f4 50 8c 3d bf 6a b9 bd a4 31 4a be
       -0.037157297 0.06851378 -0.09053563 -0.19745499
000050 0f 94 8d be 7f 54 3f 3e 36 97 63 be 18 13 af bd
       -0.27652022 0.18684576 -0.22225651 -0.08548564
000060 72 b8 76 bd a0 5c 8b 3c 27 8d 7a be a0 91 3b 3e
       -0.060234495 0.01701194 -0.24467908 0.1831727
000070 4c 60 7e be 40 d9 b3 3d 34 04 36 3e 00 1e cb ba
       -0.24841422 0.087816715 0.17775041 -0.0015496612
000080 17 86 10 be 94 1d 0b be e4 55 4f 3d 5a 41 77 be
       -0.14113651 -0.13585502 0.05061902 -0.24146023
000090 de 53 13 3e a8 a6 02 3d 1b 52 31 bd 54 90 5a 3e
       0.14387462 0.031897217 -0.043291193 0.2134412
0000a0 4c 60 71 3e 80 af a8 3b 30 9a 05 3c 8f 50 ed bd
       0.2357189 0.0051478744 0.008154437 -0.11587631
0000b0 50 65 11 3d 48 36 1c be df 43 46 3e 4f 4d 89 be
       0.03549701 -0.15255082 0.19361828 -0.26816794
0000c0 14 ff 8c be 82 3c 21 3e 48 ab e7 bd 2a 49 55 bc
       -0.2753836 0.15745738 -0.11311966 -0.013017932
0000d0 58 b2 67 be a6 01 13 bd 90 37 3c 3d b0 48 b2 3d
       -0.22626626 -0.035890244 0.045951426 0.0870527
0000e0 00 ac f7 3d 40 76 67 be 04 cf ac 3d d0 f9 47 bd
       0.12093353 -0.22603703 0.084379226 -0.048822224
0000f0 98 bb 3a 3e 71 66 69 be fc 4e 84 be 80 58 14 be
       0.18235624 -0.22792985 -0.2584151 -0.14486885
000100 86 d0 56 3e 49 fd a7 bc 64 ea 69 3e 41 c0 ab bc
       0.20977983 -0.020506518 0.22843319 -0.020965697
000110 c5 37 92 3d 69 c9 d7 3c 00 68 13 3e eb e2 90 3d
       0.071395434 0.026341157 0.14395142 0.07074531
000120 59 eb 1d bc c6 62 e3 bd 08 dd 2c be 58 32 23 bd
       -0.009638631 -0.11102824 -0.16881192 -0.039842933
000130 d4 82 6e be e0 35 d6 bc f8 ed 70 be 80 06 b3 bb
       -0.23292094 -0.026148736 -0.23528278 -0.0054634213
000140 72 fc 15 3f 7a 3e a3 3e 57 f1 d4 3d cc ae dc bc
       0.58588326 0.31883603 0.103975944 -0.026938818
000150 95 2e 94 bd 07 55 8a be df 01 83 bd 36 f9 46 3f
       -0.07235447 -0.27017996 -0.06396841 0.77724016
000160 19 a2 95 3d 2d 79 e6 3e 89 2d ce 3d 38 11 0e be
       0.07306308 0.45014325 0.10067279 -0.13873756
000170 19 68 00 3e 3c 48 d9 bd a4 91 42 be 04 02 57 be
       0.1253971 -0.10609481 -0.1900087 -0.20996863
000180 be e9 0c be e2 94 68 3e 88 e2 58 3d ee cd 34 3e
       -0.1376104 0.22713044 0.052950412 0.17656681
000190 3e cb 73 bd a4 df c9 3d c8 a3 57 be 31 6e 53 be
       -0.05952 0.09857109 -0.21058571 -0.20647503
0001a0 60 7b ee bd 71 4b d6 be 65 50 33 3c 1a d1 33 3e
       -0.11644626 -0.41854432 0.0109444605 0.17560235
0001b0 e0 66 94 bd f0 90 1b bd 2d e8 38 3e d7 97 4b bc
       -0.07246184 -0.03798002 0.18057318 -0.012426338
0001c0 30 42 94 3d c5 58 15 be a3 10 9d 3e f5 88 89 3a
       0.07239187 -0.14584644 0.30676755 0.0010493087
0001d0 4b 40 b6 3e b1 09 cc bd 1d 65 31 3e 9a 43 6f 3e
       0.35595927 -0.09962786 0.17323728 0.23365632
0001e0 00 f4 7f be 40 b4 b8 be a1 24 ce bc c4 0c 52 be
       -0.24995422 -0.3607502 -0.02516395 -0.20512682
0001f0 e3 02 02 3e 90 e4 85 be dd f6 d0 3d 63 c4 17 3e
       0.12696414 -0.26150942 0.102033354 0.1482101
000200 7d 5f bb be 45 19 14 3d b4 98 68 be 2e aa 3c be
       -0.3659629 0.03615691 -0.22714502 -0.18424293
000210 00 e5 1d 3d 29 bb c9 3b b8 4d 04 3e 30 59 d4 bc
       0.03854847 0.0061563444 0.12920272 -0.025921434
000220 d8 24 94 bd 81 a2 2f be 40 a8 69 3c d3 f3 0b 3d
       -0.0723359 -0.17151834 0.014261305 0.034168076
000230 cc 80 06 3e f0 39 a0 3d 50 e3 e2 bd 50 e5 74 3d
       0.1313507 0.07823551 -0.11078513 0.059789002
000240 84 8e d0 be 5d f8 f4 bd 95 4c 9d 3d 48 87 a2 be
       -0.4073373 -0.11961434 0.076806225 -0.31743836
000250 3d 79 1f be 2f 5c 71 3e 2f 0e b7 bd 20 2b 0e be
       -0.15573592 0.23570322 -0.08938252 -0.13883638
000260 bc c8 c4 3d 5e f8 5a be b7 66 51 3d e1 51 27 be
       0.096085995 -0.21383807 0.051123347 -0.16339828
000270 73 a2 7e 3d 6b ee 80 3e f8 de 85 3d 04 58 67 3e
       0.062166642 0.25181898 0.065366685 0.22592169
000280 f3 06 5e be b5 8a 31 3e 84 15 f3 3d 6a 59 82 bd
       -0.21682338 0.17338069 0.11869338 -0.06364711
000290 50 c2 8d 3e 45 51 99 3c 2f cb 7b bc 88 28 63 bd
       0.2768731 0.01871551 -0.015368267 -0.055458575
0002a0 60 08 24 3e a1 79 99 be ed 2e 91 3d bc a5 06 be
       0.1601882 -0.29975608 0.070890285 -0.1314916
0002b0 94 41 25 3e a0 ef 56 be 4b 57 75 3d 5e 45 30 3e
       0.16138297 -0.20989847 0.059897702 0.17213961
0002c0 37 37 a4 3a 75 b0 15 3d fd 05 eb 3b 61 70 c3 bd
       0.0012528662 0.036545236 0.0071723447 -0.09542919
0002d0 7f fe 9f be ba 34 89 3e 07 5b 87 bc 6e 6f e9 bc
       -0.31248853 0.2679804 -0.016522897 -0.028495517
0002e0 20 03 e1 3c 46 b1 53 3e df eb 62 3c 60 35 00 be
       0.02746731 0.20673093 0.013850181 -0.12520361
0002f0 a6 7c 66 be 3b 3f 83 3e b0 88 b8 be 62 35 ef bd
       -0.22508487 0.2563418 -0.36041784 -0.11680104
000300 70 ba 26 bd ae bb a4 bd ac 06 26 be 6c 7b 6b be
       -0.040705144 -0.080436096 -0.16213483 -0.229963
000310 d5 99 79 be f8 c2 4e be 88 3f a2 bd cc de 16 3e
       -0.24375089 -0.20191562 -0.07922274 0.14733428
000320 38 94 7c bd d5 8e 6e be d0 cd 7b 3d 3d 52 61 be
       -0.06166479 -0.23296674 0.061475575 -0.22004028
000330 c0 19 c6 3d a0 7e ad bc 10 7d 75 be d8 ee 0c 3e
       0.0967288 -0.021178544 -0.23973489 0.13762987
000340 16 dc cf 3d b8 d0 0c be 79 5e 22 3e df 05 e5 bd
       0.101494 -0.13751495 0.15856351 -0.111827604
000350 b5 c0 4d 3d c8 ff 52 be cb 62 a4 3d e7 e8 c0 3c
       0.050232608 -0.20605385 0.08026656 0.023548556
000360 de 7d 5e 3d 29 11 39 be 5c 1b 3c be 2a 13 f1 bd
       0.054319255 -0.18072952 -0.18369812 -0.117712334
000370 63 ef e2 bd 09 89 fa 3d 48 fb 70 be 10 bb f5 3d
       -0.11080816 0.12233169 -0.23533356 0.1199857
000380 8d 9e 3e be e0 37 49 be f6 45 fe 3d a2 aa 86 be
       -0.1861517 -0.19650221 0.12415688 -0.26302058
000390 af 35 e2 3d 85 ef e3 bd 55 7d 25 be 67 9e 40 3e
       0.110453956 -0.11129669 -0.16161092 0.18810426
0003a0 68 c0 b9 bd 87 6f 42 be a8 3e e0 3c 94 2d 6b bd
       -0.09069902 -0.18987857 0.027373627 -0.057416514
0003b0 d0 29 92 bd 28 b6 7b 3e 44 f1 71 be 4b af 28 3e
       -0.07136881 0.24581206 -0.23627192 0.16473119
0003c0 3f 2d 2a be f0 d8 68 be 09 02 6f be 4c 93 0e be
       -0.16618823 -0.22739005 -0.2334062 -0.13923377
0003d0 ea 38 37 be 05 cc dc 3d 91 2b 46 3e 61 12 6b be
       -0.17892805 0.10781101 0.19352557 -0.2295623
0003e0 a4 85 41 3e a4 34 2f 3e ac 3d 6f 3e e0 44 c2 bc
       0.18898636 0.17109925 0.2336337 -0.023714483
0003f0 28 08 0b 3e 70 b9 89 bd e9 92 71 3d 1f e3 93 bc
       0.1357733 -0.067248225 0.058977995 -0.018052636

sequential_4/Hidden_3/MatMul f4 [16, 32]
000000 7e 03 a8 be 83 2e 1c be ce bb 25 3e 63 b3 a6 3e
       -0.32815164 -0.15252118 0.16184923 0.32558736
000010 e2 24 8c be d8 aa b2 3d 04 22 48 be fc b5 15 3e
       -0.2737189 0.08723992 -0.19544226 0.14620203
000020 0c 86 23 be 0e e4 a8 be b2 2f a4 be 82 a7 54 3e
       -0.15969104 -0.32986492 -0.3206764 0.20767024
000030 c5 8d a3 3e c8 76 f6 3d 50 a1 eb bc 67 b6 a6 be
       0.319441 0.120343745 -0.028763443 -0.32561037
000040 bc dc 8e be 9a f4 69 3e 50 48 e9 bc 22 e1 0e 3e
       -0.27902782 0.22847214 -0.028476864 0.13953069
000050 b3 8f 13 be 40 fe b5 3d 48 3a 3e bd ab 26 9c be
       -0.14410286 0.08886385 -0.0464423 -0.3049825
000060 14 3c cb bd 6c 01 0a 3e a9 46 ae be 40 d0 dc 3c
       -0.09923568 0.13477105 -0.34038284 0.02695477
000070 a3 4a 5c be 58 e3 2f be 00 12 cb ba e7 0c 29 be
       -0.21512847 -0.17176569 -0.0015493035 -0.16508828
000080 a7 df 5b bd 01 db 2e 3e b9 1b c6 bd 53 53 2c be
       -0.05368009 0.17075731 -0.096732564 -0.1682866
000090 4d c5 ab 3d 8c a5 3b be 95 04 9b bb b0 54 90 be
       0.083872415 -0.1832487 -0.004730771 -0.2818961
0000a0 b4 e9 20 be ca fc c6 3e af 6a 72 be 7b db f3 3d
       -0.1571415 0.38864738 -0.23673509 0.11907097
0000b0 50 84 4d be cc 92 55 3c 3c e4 87 bd 5a 91 36 be
       -0.20070004 0.013035487 -0.06635329 -0.17828885
0000c0 90 45 ad bd be d4 80 be 0c 36 0c be 9e 44 50 be
       -0.084605336 -0.2516231 -0.13692492 -0.20338675
0000d0 7d 54 dc 3c 3d f8 b1 3e fa ef ae 3e 25 e6 9d 3e
       0.026895756 0.34759703 0.34167463 0.3083965
0000e0 e7 d9 0f 3e 93 c1 07 3e f7 49 81 be f3 a6 82 3e
       0.14047967 0.13257436 -0.25251743 0.25517997
0000f0 6b 22 06 be 07 3a 51 be cb 72 8c bc 0c fa f9 bd
       -0.13099067 -0.20432292 -0.017144581 -0.12205896
000100 07 d8 a5 3d 34 6f d0 3e 3b 5a 51 3e 45 27 14 3e
       0.080978446 0.4070984 0.20444576 0.14468105
000110 b1 ca c4 bd f7 40 88 be 84 a7 87 be 13 4d 59 be
       -0.09608973 -0.26612064 -0.26494992 -0.21220808
000120 e1 28 83 3d a1 12 13 be e5 fa 6c bb c1 bf 51 3e
       0.064042814 -0.14362575 -0.0036160287 0.20483305
000130 2a a4 ad 3e c0 a7 a5 3e 27 6d 9e be 0f 8a b5 bd
       0.3391431 0.32354546 -0.30942652 -0.08864223
000140 65 85 96 3e dd 08 71 be d4 49 c3 bd 9b 43 90 bd
       0.29398647 -0.23538537 -0.09535566 -0.07044145
000150 f9 7b 67 be f3 a0 8d 3e a1 73 44 3e c2 21 38 3e
       -0.22605886 0.27661857 0.19184734 0.17981628
000160 c8 43 ba 3e c3 fb bf 3e cd 77 a6 3d 06 04 e6 3d
       0.36379838 0.37496766 0.08128319 0.11231236
000170 58 23 e5 3d 56 13 81 3c 45 4b 82 be 80 c4 7a be
       0.11188382 0.01575629 -0.2544805 -0.24489021
000180 22 d3 81 be dc 60 ff 3c 1b d7 56 3e 72 df 92 bd
       -0.25356394 0.031174116 0.20980494 -0.07171525
000190 85 c3 b8 3d 2b 75 d6 3d a1 6c 69 be 18 43 16 3e
       0.090216674 0.10471567 -0.22795345 0.14674032
0001a0 a7 3a 3d 3e 85 91 6a be 7d 11 70 3d bb 9a 74 3e
       0.18479405 -0.22907074 0.058610428 0.2388715
0001b0 2a c1 8a 3d 9d 14 e5 3d 3a 97 93 3b c6 1f 5c 3b
       0.06775124 0.11185572 0.0045041116 0.0033588274
0001c0 7e 41 60 3e bb ec 29 3c 9d 80 82 3d be ee 82 3d
       0.21899983 0.010371382 0.06372187 0.06393193
0001d0 3e 14 e2 3d b7 bb 87 bb 73 8a 4b 3d 33 70 af 38
       0.11039017 -0.0041422504 0.049692582 8.365549e-05
0001e0 7e 37 a5 be 28 b3 a9 bd 35 57 b0 bc 57 bd 50 3e
       -0.322689 -0.082861245 -0.021525959 0.20384727
0001f0 3a f2 53 be b7 3a f0 3c e5 79 c1 3d 16 66 3a 3e
       -0.20697871 0.029324872 0.09447078 0.18203005
000200 c3 58 af be e7 a7 2a 3d 00 a4 08 3e 82 7f 28 3e
       -0.34247407 0.04166403 0.13343811 0.1645489
000210 ae bb 59 3e e6 38 2c be 02 60 30 be 51 83 ba 3e
       0.21263 -0.1681858 -0.17224124 0.3642831
000220 9c a1 af 3e b8 ab 09 be 70 11 cc 3c 88 a6 2c 3e
       0.34302986 -0.13444412 0.024910659 0.16860402
000230 35 17 1d be cf bc 1a bd 58 a4 20 bd 8f 71 44 3e
       -0.15340884 -0.03777772 -0.03921923 0.19183944
000240 fe 69 66 3e 50 df 35 3e 5b c8 00 bb 97 2f ae 3e
       0.2250137 0.17760968 -0.0019650671 0.34020683
000250 9b ee 17 bd d5 93 98 3e 0e e9 a1 3d 9f 36 01 be
       -0.037092786 0.29800287 0.0790578 -0.12618493
000260 0a a1 03 3f 9f bb c9 bd 91 cd 72 3b b6 7b 91 3d
       0.514176 -0.09850239 0.0037048797 0.07103674
000270 01 38 8b be 3b 3a e3 be 42 14 49 3e 7c d2 b7 bd
       -0.27191165 -0.44380364 0.19636634 -0.089756936
000280 17 d2 91 be 31 37 fb bc f3 5e 09 3d df 8c ab be
       -0.28480598 -0.030665966 0.033537816 -0.33505914
000290 fc d9 b2 3d 89 44 33 be 9a 9f b3 3e 98 e1 6f be
       0.087329835 -0.17506613 0.35082704 -0.23425901
0002a0 a2 d7 02 bd c6 54 b4 be 5a df 3b bf 6c c4 e1 bd
       -0.031943925 -0.35220927 -0.7338768 -0.110237926
0002b0 8c 25 b9 bd 35 3b ea 3d 31 ba 85 3d b6 8c 1d bc
       -0.090403646 0.11437074 0.06529654 -0.009616068
0002c0 75 15 93 be 17 23 d5 3d 31 88 ad 3e 03 7b d2 bc
       -0.28727308 0.104070835 0.33892968 -0.025693422
0002d0 f6 35 f8 bf ff c2 92 3d 18 3a 37 3d 37 ea 53 be
       -1.9391468 0.07166099 0.044733137 -0.20694815
0002e0 97 f1 66 3f db e3 c3 bc fe 3e ba 3e 19 41 2e 3e
       0.90212387 -0.02391236 0.36376184 0.1701702
0002f0 2e 2c 82 be 2b 52 bb 3d 8e c5 6f bd a2 fd 1b be
       -0.2542433 0.09146532 -0.058538012 -0.15233472
000300 35 a5 97 3e 1c 00 24 be 20 91 09 3e 5b 04 45 be
       0.2961823 -0.16015667 0.13434267 -0.19239943
000310 6e 72 ac bb fb 5f 86 3e 77 eb bc 3c 7c ed 6c bc
       -0.0052626645 0.26245102 0.023061497 -0.014460918
000320 a9 fb 64 be f7 80 2a 3e e7 c5 00 be f4 ee be 3d
       -0.22361626 0.16650759 -0.12575494 0.093229204
000330 85 3c 35 be aa 3d 9b 3e 2a 09 e4 3c 4d 27 20 bc
       -0.17698868 0.30320483 0.027836401 -0.009774995
000340 58 e2 3f bd bf f3 93 bc 52 6c c4 3d b2 6a 65 be
       -0.046846718 -0.018060563 0.09590973 -0.22403982
000350 fc 13 50 3e 4c 59 1b 3e e4 fd a1 3c b0 e9 93 3e
       0.20320123 0.15170783 0.019774385 0.28889227
000360 dd 87 36 bd 71 d8 65 be f7 41 93 be 9e db 6a 3e
       -0.044563163 -0.22445847 -0.28761265 0.2293534
000370 d8 e5 47 be cd ba d5 bd c3 57 64 3e 60 71 fa 3c
       -0.19521272 -0.1043602 0.22299103 0.03057164
000380 65 c4 92 be 23 69 a9 3e 2e 86 42 3e b9 63 b7 3d
       -0.28665462 0.33088025 0.18996498 0.089545675
000390 3d 30 b4 be 99 a5 ae be 09 c6 5c 3d b6 59 2d be
       -0.35193053 -0.34110716 0.0538998 -0.16928753
0003a0 9a 27 0a bd 8c 39 81 3e 38 59 62 be 0d 8f 9b be
       -0.033729173 0.25239217 -0.22104347 -0.30382577
0003b0 18 c8 a7 3d ee fa ac bd 0f 69 74 3e e7 d1 85 be
       0.08192462 -0.084462985 0.23868202 -0.26136705
0003c0 70 21 ce 3c 88 4a 00 bd fd 9e a9 3e ab e4 a4 3e
       0.025162429 -0.03132108 0.3312911 0.3220571
0003d0 41 04 04 be 3a 97 a6 3e 2e 09 45 3e 9c 31 31 bb
       -0.12892248 0.32537252 0.19241783 -0.0027037626
0003e0 81 67 a9 be 0c 48 51 be fe b5 36 3e f5 d6 98 be
       -0.3308678 -0.2043764 0.17842862 -0.298515
0003f0 f9 19 a8 be 1a ec 0b 3e e7 33 8e be 77 f5 9e be
       -0.32832316 0.13664284 -0.27773973 -0.3104665

sequential_4/Out_1/MatMul f4 [1, 16]
000000 7e 60 7b be ad 19 5c be cd ab 2f 3e d7 58 c3 be
       -0.24548528 -0.2149417 0.1715538 -0.38153717
000010 38 80 31 3d b3 2d 81 3f 21 9d e0 3e b0 18 be 3e
       0.04333517 1.0092071 0.4386988 0.3712821
000020 82 fc 20 be 17 64 ca 3e 09 32 a3 3e 99 cc 76 3e
       -0.15721324 0.39529487 0.3187411 0.24101485
000030 4c 79 b0 3c 2a 2a 67 be 31 c3 d2 be 6c ca 0b 3e
       0.021542214 -0.22574678 -0.41164544 0.13651437

sequential_4/Scaler/mul;sequential_4/Hidden_1/MatMul;sequential_4/Hidden_1/Relu;sequential_4/Hidden_1/BiasAdd f4 [64, 3]
000000 60 c6 b7 b6 80 19 07 3c 30 6d 00 3c 5f 27 c0 35
       -5.476919e-06 0.008245826 0.007838532 1.4316573e-06
000010 cd 91 1f 3b ea ea 38 bd 5e f5 71 b5 73 a5 83 bc
       0.0024348379 -0.045145907 -9.013655e-07 -0.016070103
000020 2a 18 c1 bb 91 c6 c1 34 71 4b 4c 3c b3 4e 0d 3b
       -0.005892773 3.6093527e-07 0.0124691585 0.00215618
000030 87 55 2c b5 00 22 1e 3c 75 6f 43 bb b6 df b4 b6
       -6.419945e-07 0.009651661 -0.0029821072 -5.3904614e-06
000040 a8 1e 21 bc 59 e7 d9 3c 8a 39 b6 b5 53 3f 81 bc
       -0.009833969 0.026599573 -1.3576803e-06 -0.015777266
000050 4b 77 29 bc bf 35 14 b4 d0 3a e9 bc be 09 5b 3c
       -0.010343383 -1.3803127e-07 -0.028470427 0.013369022
000060 61 71 f5 35 29 00 3f bb 11 c7 83 3c d4 87 f3 35
       1.828692e-06 -0.0029144383 0.016086133 1.8144442e-06
000070 90 9e ae bb 8e 90 b9 3c 17 09 09 b5 33 c4 80 bc
       -0.0053289607 0.022651937 -5.1049705e-07 -0.015718555
000080 5a f7 a3 bc e5 c4 bc 35 54 89 a9 3b 93 9f c3 ba
       -0.020015407 1.4064395e-06 0.0051738415 -0.0014924876
000090 3f f2 8c b5 f5 c6 6d bc ac 77 76 bc 9a 66 3b b5
       -1.0501316e-06 -0.014512767 -0.01504318 -6.9812234e-07
0000a0 6a d6 74 bc 1e 7a 66 bc 2f 13 74 b5 42 ff 92 bb
       -0.014943698 -0.014067201 -9.0925e-07 -0.0044859955
0000b0 40 7b 96 bc 84 5c 28 b5 33 ee 03 ba 63 86 61 bc
       -0.018369317 -6.2719505e-07 -0.0005032748 -0.01376495
0000c0 73 7c 0c 36 0f ff 16 bd 48 7d 75 bb 64 1c 13 b6
       2.0934065e-06 -0.036864337 -0.0037458707 -2.1921232e-06
0000d0 33 52 bd 3b c3 6e cf 3c 62 43 2c 36 88 d7 89 3b
       0.005777621 0.02532137 2.566922e-06 0.0042066015
0000e0 5c 2a 5a 3c b5 9f ae 35 20 9d 76 bc b3 db 37 bc
       0.013315763 1.3010491e-06 -0.01505211 -0.011221814
0000f0 b3 c3 08 b6 81 6f 09 bd ae b8 8c 3c ab 9a 96 b4
       -2.0379491e-06 -0.033553604 0.017177906 -2.8052213e-07
000100 ab 93 90 bc db 4c c7 3c 40 55 1b 35 8c 3d 26 3b
       -0.017648539 0.02432864 5.7866055e-07 0.0025366275
000110 ee b1 86 3c ee 0c f0 35 62 2b 3e bd 58 2a 0c bb
       0.016442265 1.7885156e-06 -0.04642809 -0.0021387544
000120 1c 91 ce 35 b6 16 5b 3c 35 cd ce 3b f6 bf 9f 35
       1.5390428e-06 0.013372114 0.0063110837 1.1902291e-06
000130 d7 83 c0 bd a1 9d 32 3b d6 9d f5 35 34 06 8d 3c
       -0.094001465 0.0027254599 1.8299859e-06 0.017214872
000140 86 3f 1b bb 2f 36 03 b3 8c ad 11 3c 18 b4 80 bc
       -0.0023688986 -3.0550094e-08 0.008891474 -0.015710875
000150 28 ff 82 b6 75 8e 2a 3c 6c ee 63 3a 9f a7 f7 35
       -3.904006e-06 0.010409941 0.00086948904 1.8451718e-06
000160 66 b9 37 3c 4c b5 f7 bb e1 45 0f b5 97 7a 68 ba
       0.011213636 -0.007559454 -5.337334e-07 -0.0008868365
000170 b6 91 f3 bc 9c 56 a5 b5 09 e0 57 bc 37 ac 6f bb
       -0.029732566 -1.2318665e-06 -0.013175973 -0.0036571154
000180 5f b9 26 35 e3 ae a9 3a 9a 31 7b 3c 42 26 30 36
       6.210957e-07 0.0012945797 0.01533165 2.6248313e-06
000190 4a 2c 29 bc c2 93 bd 3c 98 99 01 35 6c 87 06 bc
       -0.010325501 0.023141745 4.8279753e-07 -0.008210998
0001a0 99 f9 f8 3c 0d 84 ce 35 51 97 41 3b be c5 49 3c
       0.030392455 1.5386628e-06 0.0029539654 0.012315212
0001b0 ba 0f 3b 36 9c 9b 24 3c 02 5a 6e 3c 36 c7 b1 35
       2.7874325e-06 0.010046866 0.014547827 1.3245506e-06
0001c0 42 d1 3e 3c 3b c4 e4 3b 79 e7 3c b4 72 d2 af bc
       0.011646571 0.0069814003 -1.7593074e-07 -0.021462653
0001d0 e0 33 ae 3c 09 b2 0b 36 8d bf 5e 3b 02 03 44 bc
       0.02126497 2.0816244e-06 0.0033988685 -0.011963608
0001e0 c7 18 c7 b5 42 90 3b bb d1 2c db bc 0d d3 ac 35
       -1.4833867e-06 -0.002861992 -0.026754769 1.2876422e-06
0001f0 ae c3 c2 3b 9f 52 1b be 58 fb 00 b6 df 99 66 3c
       0.005943737 -0.15168236 -1.9219788e-06 0.014074772
000200 91 7c 05 bb e3 70 85 35 01 d7 1e 3b 67 59 cf ba
       -0.0020368437 9.942127e-07 0.002423704 -0.0015819491
000210 c4 a8 7d b5 5d 6a 2c ba 1e 69 88 bc d2 8f d5 b5
       -9.449543e-07 -0.00065771287 -0.016651686 -1.5911594e-06
000220 e0 58 79 bb c9 8c 5a bc 4f 67 88 35 68 e3 4d bb
       -0.0038047358 -0.01333923 1.0162856e-06 -0.0031416062
000230 6d 46 ad 3c 20 0c 43 b5 73 be 4b 3c 0e b7 bd 3a
       0.021151746 -7.2660805e-07 0.012435543 0.001447411
000240 b4 da 4a 34 05 4f d9 3b e0 c2 32 3c 42 93 1d 36
       1.889228e-07 0.0066317343 0.01091072 2.3480538e-06
000250 7d 86 1c ba 18 30 37 3c de 63 8e b6 e5 4c 35 bc
       -0.0005970968 0.0111809 -4.243556e-06 -0.011065696
000260 77 ce bc 3b 88 b6 c9 b5 2d 5d b2 bb 47 a8 dd 3c
       0.005761917 -1.5028791e-06 -0.0054432363 0.02705778
000270 dc e2 8d 35 c3 01 61 bd e8 3e b5 3b 03 94 e6 35
       1.0571343e-06 -0.05493332 0.0055311806 1.7179412e-06
000280 a6 47 59 3a 2f 1f 9e 3c fe d0 c8 b4 01 2c ac ba
       0.00082885695 0.019301979 -3.7404965e-07 -0.0013135673
000290 47 aa 20 3c 73 3f d5 35 c4 22 86 3c be 6f 1b bc
       0.009806222 1.5888203e-06 0.016374 -0.009487091
0002a0 a2 38 ce b5 ab 7c 08 bc 61 18 a0 bc 29 4c 3f 36
       -1.5364678e-06 -0.008330504 -0.019542875 2.850555e-06
0002b0 65 e8 70 bb 43 b3 58 3b a3 5d 39 b5 d0 45 d5 ba
       -0.0036759612 0.0033065833 -6.905413e-07 -0.0016271416
0002c0 ce ef 41 3c ec d8 84 b5 20 e5 31 bc 82 7f a7 bc
       0.011836959 -9.897899e-07 -0.01085785 -0.020446543
0002d0 32 c8 b6 b5 8e 46 01 3b 9a ef e4 bc c0 19 19 36
       -1.3618321e-06 0.0019725892 -0.027946282 2.2813765e-06
0002e0 9e 10 27 3c dd c1 25 3b f4 9b 0f 35 22 d4 fc bb
       0.010196833 0.0025292553 5.3498593e-07 -0.007715718
0002f0 d6 da 01 bc d6 80 8e 35 88 83 6a 3c 96 4d 1b bd
       -0.00792571 1.0617321e-06 0.014313586 -0.03791579
