SMArtIInt/Resources/ExampleNeuralNets/NNHeatTransfer/model.onnx (onnx, 185235 bytes, 12 tensors)

StatefulPartitionedCall/sequential/Scaler/Cast:0 f4 [3]
000000 29 49 c3 36 c5 88 88 3d 52 ce cc 3d
       5.81997e-06 0.06666712 0.1000029

StatefulPartitionedCall/sequential/Out_1/MatMul/ReadVariableOp:0 f4 [16, 1]
000000 8e 36 97 be e9 72 c0 3a 8a 11 cc 3e 5d 11 08 3c
       -0.2953381 0.0014682683 0.3985713 0.008304921
000010 84 ec c4 3d 21 40 00 bf f1 fb 1d be 33 f3 80 3e
       0.09615424 -0.5009785 -0.1542814 0.25185546
000020 10 77 41 3e ab 25 e0 3f d2 f7 90 3e 4b ee 52 3e
       0.18893075 1.7511495 0.28314072 0.20598714
000030 77 ef 52 bb ae 3a a3 bd e1 a1 9c 3d 98 ea 6a 3c
       -0.003218619 -0.07970177 0.076480635 0.014338158

StatefulPartitionedCall/sequential/Hidden_5/MatMul/ReadVariableOp:0 f4 [32, 16]
000000 77 ae af be 85 d2 00 3e 8b f0 dc bd 3c 02 37 be
       -0.34312794 0.12580307 -0.107880674 -0.17871946
000010 ad 25 7c be 44 1e 4c be 6b 08 98 bd e9 82 05 3e
       -0.24623747 -0.1993342 -0.074234806 0.1303822
000020 63 7f 5b 3e e8 c0 b3 be 7b 6f a8 be 6c aa a3 be
       0.21435313 -0.35108113 -0.32897553 -0.3196596
000030 60 6c cd 3d a4 6d 67 be 07 68 66 be d4 af 20 3e
       0.100304365 -0.22600418 -0.22500621 0.15692073
000040 85 ae 6b bc 5f 40 93 bd 59 b5 f0 bd e6 69 82 3c
       -0.01438487 -0.07190012 -0.11753339 0.015919637
000050 2a 80 86 3e 12 f5 d4 bd ed 44 d4 bd 87 b7 2a be
       0.26269656 -0.10398306 -0.10364709 -0.16671573
000060 fc 41 48 3e 92 b1 4d be 02 d8 73 3e 41 00 a3 be
       0.19556421 -0.20087269 0.23812869 -0.3183613
000070 b2 fb 9b be fd d5 76 be 26 9f 08 3e 66 30 5f 3e
       -0.30465466 -0.24105068 0.1334196 0.21795806
000080 00 dd 3d bb 3a 92 95 be e8 85 f4 3d 80 9f ed 3c
       -0.0028970838 -0.29213125 0.11939603 0.02900672
000090 1a d1 5c 3e 32 63 db bd af be ab be 69 60 8a 3e
       0.21564141 -0.107122794 -0.33543918 0.2702668
0000a0 36 8d a2 bc 16 e4 a9 be b2 9b 46 be f2 ac 3b be
       -0.019842725 -0.33181828 -0.1939533 -0.18327692
0000b0 d1 41 79 be 1d 76 89 be 1e e1 95 be 8a 72 31 be
       -0.24341513 -0.26847926 -0.29273313 -0.1732885
0000c0 be b9 1e 3d dd 06 03 be 3f ce e4 bd c0 a9 c1 be
       0.038751356 -0.12795587 -0.11172151 -0.3782482
0000d0 60 4a 4e 3e e1 fa 44 bc 89 de 8b be 27 21 49 3e
       0.2014556 -0.012022705 -0.27318218 0.19641553
0000e0 16 7d 38 3f 87 3f 59 3e 23 40 a2 be 29 ca ea 3d
       0.72065866 0.2121564 -0.31689557 0.1146434
0000f0 f1 fb a2 3e f1 e1 8e 3e 3a 51 90 be fb 69 52 3e
       0.3183284 0.27906755 -0.2818697 0.20548241
000100 64 c3 56 be c6 f1 4e bf 4b 93 23 3b 43 16 40 3e
       -0.20972973 -0.80837667 0.002495962 0.18758492
000110 dc 5c 59 be 86 9b 59 bd 40 e9 0f bd 17 8f c5 bc
       -0.2122683 -0.053126834 -0.035134554 -0.024116082
000120 dc bb a7 bc ad 23 bf bb f5 ab 0b be 2b c0 0c 3e
       -0.02047532 -0.0058331103 -0.13639815 0.13745181
000130 be 57 a2 bd 8c c7 3f be c4 16 27 be dc 4f 00 be
       -0.07926892 -0.18728465 -0.16317278 -0.12530464
000140 f9 aa bf 3b 71 15 0d bf 45 26 2e 3e 07 ac 6d 3d
       0.005849239 -0.5511084 0.17006786 0.058025386
000150 85 0a 6d 3e 12 dd 2e be dc ed 6a be 23 d8 1f be
       0.23148544 -0.17076519 -0.22942299 -0.15609793
000160 ab 03 ec 3e 18 47 96 bd 5f 56 a5 be 76 8d ba 3d
       0.46096548 -0.07337779 -0.32292458 0.09109013
000170 29 4c a4 3d 39 1b 29 3e 45 de a6 3e 57 f4 52 be
       0.08022339 0.16514291 0.32591453 -0.20601021
000180 bf 99 90 3e cd dc e4 bc d6 51 6c 3e 1e 1f 73 be
       0.282423 -0.027937317 0.23078093 -0.23742339
000190 f8 f6 34 3d a7 3c 8a 3e 63 5e 87 be 37 2d 9b 3e
       0.04418084 0.269994 -0.264392 0.30307934
0001a0 4a 8e 05 3e cb 98 8a be 16 1c 35 3e e2 60 09 be
       0.1304256 -0.27069697 0.17686495 -0.13415864
0001b0 3a 94 75 3d 45 b4 52 bd 98 ea d3 3d 4c b9 76 be
       0.059955813 -0.05144145 0.103474796 -0.24094123
0001c0 b9 4f a4 3e f8 83 89 be cd 02 58 3e 84 0a 9c be
       0.32092074 -0.26858497 0.21094818 -0.30476773
0001d0 94 72 f8 3d 76 90 0c be 72 8b 52 3e f0 a3 90 be
       0.12131229 -0.13726982 0.20561007 -0.28250074
0001e0 d3 65 25 3e a0 4d 6d 3d d0 bd 0f 3e 85 73 17 be
       0.16152124 0.057935357 0.14037251 -0.14790161
0001f0 ed 03 b6 bd 45 71 1c 3e 3d 0a 3d 3e 1b 7a a6 be
       -0.088874675 0.15277584 0.18460937 -0.32515034
000200 55 90 22 be c4 65 9e 3e 4e ce 2b be 9f 7d 8e be
       -0.15875371 0.30937016 -0.16777918 -0.27830216
000210 08 de 96 be 33 09 a0 3d 36 f7 98 bd d8 a7 80 bc
       -0.2946627 0.078142546 -0.07469027 -0.015705034
000220 42 f0 29 be f9 35 bf 3d 81 cf 37 be f1 ec a1 3b
       -0.16595557 0.09336466 -0.1795025 0.0049415757
000230 8e a8 74 be ba da c2 be 63 a6 26 3d 6c 02 d8 bd
       -0.23892424 -0.380575 0.040686022 -0.10547337
000240 20 3b 17 3e 4b 32 15 be 70 8d 6a bc d8 d1 79 bd
       0.14768648 -0.14569966 -0.014315948 -0.06099114
000250 f5 cf 89 3e f1 ee 39 bd bc 46 80 be c2 88 52 be
       0.2691647 -0.045393888 -0.25053966 -0.20559981
000260 56 e5 d3 be 47 14 87 be 0b e1 34 be 17 8a 91 be
       -0.41385907 -0.26382658 -0.17663972 -0.28425667
000270 07 30 bb ba 3d db 93 3d ce 92 81 be 21 4e 60 3e
       -0.0014281281 0.07219551 -0.25307316 0.21904804
000280 16 69 83 be 6d 9f 07 3e 16 59 8e 3e 01 9a 71 3e
       -0.25666112 0.1324441 0.27802342 0.23593904
000290 60 e6 da bc 42 50 0b 3e 2a 79 a3 bc 45 b4 61 3e
       -0.02672118 0.13604835 -0.019955236 0.22041424
0002a0 7f c1 26 be fb b7 5e 3e c7 93 19 be 35 35 8a be
       -0.1628475 0.2174987 -0.14997779 -0.2699372
0002b0 94 fd 18 3c 86 d0 89 be 20 ca 5d 3d 93 69 f0 bc
       0.0093378015 -0.26916903 0.05414784 -0.029347217
0002c0 9b 68 71 be 24 92 d0 bd c0 af 22 3e 81 21 9d bd
       -0.2357506 -0.10184124 0.15887356 -0.07672406
0002d0 d6 82 58 be 22 33 2e be c2 2f 1a be 75 70 84 3e
       -0.2114366 -0.17011693 -0.1505728 0.25867048
0002e0 96 5a b1 be 87 0b 8b be a0 74 b2 bd af 3e f1 bd
       -0.34639424 -0.27157232 -0.08713651 -0.11779534
0002f0 3f 93 a3 3e ff e2 ca 3e c3 ff 9c be d9 67 5a 3e
       0.31948277 0.3962631 -0.3066388 0.21328677
000300 98 ec 43 bd 95 a1 2d bd 37 f0 47 3e b2 b1 46 be
       -0.047833055 -0.042390425 0.19525228 -0.19403723
000310 3f cb 4e be a6 c7 a4 3d f4 ba 14 be 98 32 9f be
       -0.2019472 0.080458924 -0.14524442 -0.31093287
000320 b8 39 45 be 85 de 09 be e2 dd 8e be 38 41 c9 be
       -0.19260299 -0.1346379 -0.27903658 -0.3930757
000330 86 cc d6 3e ce 55 80 be a0 31 b9 3e 6a 19 84 3e
       0.41952914 -0.25065464 0.36170673 0.2580064
000340 47 32 24 be 2c b5 e9 3c f8 ba 06 bc eb 1f e3 3d
       -0.16034804 0.028528772 -0.008223288 0.11090072
000350 03 13 27 3e fb ce 86 be 8f e8 73 3e 61 28 03 3e
       0.16315846 -0.2632979 0.23819183 0.12808372
000360 9c fc 7b 3e 42 48 11 3e e0 dc 2e be 0e ec 4b be
       0.24608082 0.1418772 -0.17076445 -0.19914266
000370 e6 d2 0e be 31 7a cb 3e e7 e2 92 be 61 1e e4 be
       -0.13947639 0.39741662 -0.28688738 -0.44554427
000380 2d f4 31 be 4e 96 c6 be ad 49 76 3e 86 69 0b be
       -0.17378302 -0.38786548 0.24051543 -0.13614473
000390 1b ac c5 bd 9c 75 2f 3e 04 e6 14 be 65 b9 2a be
       -0.09651967 0.17134708 -0.14540869 -0.16672285
0003a0 b7 d8 81 3e 81 7e 2d be ba 59 22 be c4 b7 73 3c
       0.25360653 -0.16942789 -0.1585454 0.014875356
0003b0 50 fd c6 bd 8f fa 52 3d c4 20 0c bd a3 88 d9 bb
       -0.09716284 0.051508483 -0.034210935 -0.006638603
0003c0 40 9e 34 bd 5f 96 b2 ba 05 1d 8f 3c 05 e6 44 be
       -0.04409623 -0.0013625136 0.017469892 -0.1922837
0003d0 16 97 2e 3e 40 32 4b bc 63 f1 b1 be dd 99 85 be
       0.17049822 -0.012402117 -0.34754476 -0.2609395
0003e0 5b a6 05 3c 47 c4 91 3e c0 b5 b6 bb a3 52 43 be
       0.008157338 0.2847006 -0.0055758655 -0.19074492
0003f0 4f 5d 48 3d 88 9b ab be ee 50 a4 be 39 39 5d 3d
       0.04891711 -0.33517098 -0.32092994 0.05400965

StatefulPartitionedCall/sequential/Hidden_5/BiasAdd/ReadVariableOp:0 f4 [16]
000000 d2 c9 c4 bb a3 2d c2 bc 93 07 e8 3a f6 e9 7c bd
       -0.006005504 -0.023703402 0.0017702453 -0.06174656
000010 e6 28 64 bc 00 53 d4 bc 69 1a 02 bd ea bb 8a bb
       -0.013925767 -0.025918484 -0.031763468 -0.004233827
000020 2c d4 9e bd 77 56 c9 be 00 00 00 00 b1 ce 12 bd
       -0.07755312 -0.3932378 0.0 -0.035841648
000030 33 dc 95 bc 11 bc 97 bb 7e 32 11 bb 38 ff b5 bd
       -0.018293476 -0.0046305736 -0.002215534 -0.0888657

StatefulPartitionedCall/sequential/Hidden_4/MatMul/ReadVariableOp:0 f4 [64, 32]
000000 20 d8 42 be 1c ee d9 3d 38 08 b1 3d 35 0c 0d be
       -0.19027758 0.10641119 0.08644146 -0.13774188
000010 84 c9 24 3d 1d da 18 3e 27 4a 6a be ad d8 45 3e
       0.040231243 0.14926954 -0.2287985 0.19320937
000020 1d c1 9e bd 05 9f a5 3e f2 db 17 be 6d c8 1c be
       -0.07751677 0.32347885 -0.14829996 -0.15310831
000030 d3 23 2f be 84 01 9c be 04 77 71 3d ca 49 a3 bd
       -0.1710351 -0.30469906 0.058951393 -0.079730585
000040 59 ad 27 be 5e 02 79 3e d5 e0 bb 3c ab ff f9 3d
       -0.1637472 0.2431731 0.022934357 0.12206968
000050 68 a5 a0 bd 04 43 2a be d2 fe 98 3d 5e 89 b1 bd
       -0.07844049 -0.16627127 0.07470478 -0.08668779
000060 7b 89 61 3e 8b 17 5d be 08 50 86 3e 98 7a 93 bd
       0.22025101 -0.21591012 0.26232934 -0.07201117
000070 74 d2 cb 3d 19 95 e4 bc 88 9f 36 be 2f 59 0c be
       0.0995225 -0.027903127 -0.17834294 -0.13705896
000080 e8 84 f4 bd 3e 14 f6 3b ec 33 a1 3b a8 6a 21 bd
       -0.11939412 0.0075097373 0.0049195196 -0.039408356
000090 02 f7 99 be c4 7d 8e bc c6 96 97 be b1 da 19 3e
       -0.30071265 -0.017393954 -0.29607219 0.1502483
0000a0 bd cc 05 3e 70 d9 12 bc 78 e8 11 3d fe ab 3d 3b
       0.13066383 -0.008962974 0.03562209 0.0028941627
0000b0 a7 bd 27 be 5a 30 59 3e 45 e7 39 3d 14 0f 84 be
       -0.1638094 0.21209851 0.04538657 -0.25792754
0000c0 97 10 7e be fe 75 03 bd d2 e1 11 be e1 24 71 be
       -0.24811016 -0.032094948 -0.142463 -0.23549224
0000d0 96 66 c3 3d 03 dc 4d 3e 45 46 b6 3c 58 a8 50 be
       0.09541051 0.20103459 0.022250304 -0.20376718
0000e0 e0 5a a3 3c b8 42 99 bd cf c8 bb 3d 46 66 dd 3d
       0.019940794 -0.07483429 0.091691606 0.10810523
0000f0 a6 17 2d 3d 6c 68 41 be 4e c5 e8 3c 84 2e bf bd
       0.04225888 -0.1888749 0.028414395 -0.09335044
000100 d7 51 22 be 61 2d 72 be b0 37 53 be 8d 3c 7e 3d
       -0.15851532 -0.23650123 -0.20626712 0.062069464
000110 3f b5 49 3e ab 25 d8 3b 3c 6a 0b 3e 7c 17 a2 3d
       0.19698046 0.0065962872 0.13614744 0.079146355
000120 b8 00 35 be 98 0c 31 be be a1 75 bd 5d b6 28 bc
       -0.17676055 -0.1728996 -0.059968702 -0.010297385
000130 9d 2f dd bd d6 68 8a 3e ab 5a 95 3e 10 b1 4a 3d
       -0.10800097 0.27033108 0.29170737 0.049485266
000140 22 11 72 3d 73 9e 46 be 31 2f 2c be c5 e3 d5 bd
       0.05909837 -0.19396381 -0.16814877 -0.10443834
000150 33 5d 4f bd 91 ee 1b 3e 3a 64 77 be 8b 7c a5 3d
       -0.05062599 0.15227725 -0.24159327 0.08080395
000160 24 69 25 be ae d0 c6 3d 53 df 9b 3d a8 1a 0d be
       -0.16153389 0.09707771 0.07610955 -0.137797
000170 e7 08 2a be 26 87 02 3e dc 3a 40 be 45 ef 1c be
       -0.16604958 0.12746868 -0.18772453 -0.15325649
000180 93 b5 17 be ab 69 cd bd 41 3e 83 bc 67 56 21 be
       -0.14815359 -0.1002992 -0.016020896 -0.15755616
000190 13 b0 7f be 0c f4 82 be 5f b4 11 be 8a 5f ab 3d
       -0.2496951 -0.25576818 -0.14228962 0.08367832
0001a0 00 d5 88 bd 14 c9 2e be 81 1c de 3d ad 8c 05 3e
       -0.066812515 -0.17068893 0.108452804 0.13041945
0001b0 e3 c8 8b be 7c e2 fb bd f1 f3 b1 3d c2 fb 6b 3b
       -0.27301702 -0.12299058 0.08689106 0.0036008214
0001c0 43 4a a8 bd 07 3c 21 3d 64 45 96 bd 5c 12 d4 3d
       -0.08217289 0.039363887 -0.07337454 0.10355064
0001d0 bb b1 7e be bb d1 70 be 2b dd 45 3e 53 ad b9 bd
       -0.24872486 -0.23517506 0.1932265 -0.09066262
0001e0 83 4d dd bd bd 13 2c be ab 60 44 3e 14 34 16 be
       -0.108058 -0.16804405 0.19177501 -0.14668304
0001f0 c2 63 e1 3d 0b 47 33 3e 10 10 43 be d5 9d 78 bd
       0.110053554 0.1750757 -0.19049096 -0.060697395
000200 be 1b 9c bd 05 82 9c 3d 64 17 af 3d de 83 1a be
       -0.07622479 0.07641987 0.08549383 -0.15089366
000210 41 2f 7d bd 6b 51 e5 3d 10 82 8d 3d da 61 2b 3c
       -0.061812643 0.1119717 0.06909573 0.010460341
000220 b6 c6 47 3d a7 95 a4 be 5d 93 66 3e c5 cf 49 3e
       0.04877349 -0.32145426 0.22517152 0.19708164
000230 52 35 f4 3c 14 08 48 3d cb 86 61 3e 18 d6 87 3d
       0.029810581 0.04883583 0.22024076 0.06632632
000240 7b 20 59 3d 1c e9 76 bd 62 8a 1c be 11 fe 97 be
       0.05300949 -0.060280904 -0.15287164 -0.29686025
000250 38 b7 93 3c 3c c6 1a bc b5 9f e0 3d a9 a5 57 3c
       0.018031701 -0.009446677 0.10967962 0.013162055
000260 63 67 af 3d 83 bc b8 bd fd b4 e3 bd 7d 45 11 be
       0.08564641 -0.09020331 -0.11118505 -0.14186664
000270 58 4a 18 3c a5 67 d3 bd b9 d4 ba bc 26 21 72 3e
       0.009295069 -0.10322503 -0.022806512 0.23645458
000280 8e f1 7f be 2f 0e b7 bb bd 66 4c 3e 13 43 0d 3f
       -0.2499449 -0.0055864076 0.19961067 0.5518047
000290 c7 c9 e3 bd 72 d8 a0 3d ad 54 6c 3e a1 f7 4c 3e
       -0.1112247 0.07853784 0.23079176 0.20016338
0002a0 4d 57 28 3d 10 c2 36 be 09 2b 63 3e 98 fc c5 3d
       0.04109888 -0.17847466 0.22184385 0.09667319
0002b0 ba 60 4a be a1 5a 7d 3e 47 60 be 3d cd e0 c1 3d
       -0.19763461 0.24741603 0.09295707 0.094667055
0002c0 99 06 88 bd 64 57 a9 be 94 7c 6d 3e f8 14 2c 3e
       -0.066418834 -0.33074486 0.23192054 0.16804874
0002d0 0a 62 44 3f 4c 3c 4b bd 5e 58 1c bd 89 f1 bd 3d
       0.76712096 -0.04961805 -0.03817021 0.09274585
0002e0 13 9f fa bd 62 63 85 be b6 8f c1 ba b4 3c 75 3e
       -0.12237372 -0.26052386 -0.0014767561 0.23948938
0002f0 56 69 3d 3f 1e a4 15 3d 40 11 c9 3d 18 c8 d9 bd
       0.73988855 0.036533467 0.09817743 -0.10633868
000300 a8 10 f0 bd e1 c9 d9 bd a1 3c 29 bd b5 82 a0 3a
       -0.11721927 -0.106342085 -0.041317586 0.0012245985
000310 12 9c cd ba 54 64 61 be 96 d9 25 3c 46 04 09 be
       -0.0015686771 -0.22010928 0.010122677 -0.13380536
000320 4a 4a 01 be 80 56 52 bf 0d 38 49 3e 67 0d ec 3d
       -0.12625995 -0.8216324 0.19650288 0.11525994
000330 5e 6f 8d bd 0e 47 6c 3b c8 6a 3e 3d 44 8d 02 be
       -0.06906007 0.0036053094 0.046488553 -0.12749201
000340 f7 a0 32 bc 50 6c de bd 9b a9 00 3e 8e 32 3a 3e
       -0.010902635 -0.10860503 0.125647 0.18183348
000350 89 04 b2 bd 10 85 11 3e 1d f9 a4 3d 64 5f 29 3b
       -0.08692271 0.14210916 0.08055327 0.002584421
000360 ce ae b3 bc f9 ea 2a 3e a5 07 50 3e 07 d0 8a bc
       -0.02193394 0.16691197 0.20315416 -0.016944898
000370 26 a6 66 3c fe 89 76 bd a5 65 53 be f9 90 22 bb
       0.014077699 -0.060190193 -0.20644243 -0.0024805649
000380 18 f8 32 3e 35 85 a1 bc 4b bf 04 bc 8f 41 a3 bd
       0.17477453 -0.019716838 -0.008102248 -0.07971489
000390 a9 33 7c 3e b7 6f 9b bd fb 8c 20 3e 64 46 e5 bd
       0.24629082 -0.07589667 0.1567878 -0.111950666
0003a0 31 89 01 bd 80 51 91 3d 42 17 c0 bd 32 d4 52 bd
       -0.031624977 0.07095623 -0.09379436 -0.051471896
0003b0 cf 3c e4 3d b6 a0 26 bf 21 5e 4a 3e ba bd df bc
       0.11144411 -0.65088975 0.1976247 -0.027312148
0003c0 5e 04 66 3d b6 d3 74 be 49 7b 8f be 4b 3e 66 be
       0.05615651 -0.23908886 -0.28023747 -0.224847
0003d0 bf 27 47 be ce a9 5b 3d 40 09 b1 3d 33 5a e3 ba
       -0.19448756 0.053628735 0.086443424 -0.0017345607
0003e0 93 aa a6 bd 0c 82 1c be c5 72 46 3d a3 5d c5 bd
       -0.08138003 -0.15283984 0.048449297 -0.096370004
0003f0 28 4c 32 be ed 88 21 bd e2 c0 67 3d d2 60 03 3e
       -0.17411864 -0.039437223 0.05658043 0.12829903

StatefulPartitionedCall/sequential/Hidden_4/BiasAdd/ReadVariableOp:0 f4 [32]
000000 41 31 11 bd 32 75 58 bd fc 37 59 bd 81 86 8c be
       -0.035447363 -0.05284614 -0.053031906 -0.27446368
000010 3b ab 61 bd c1 33 01 bc 8c ee d7 bc cf 8e 99 bd
       -0.05509494 -0.007885874 -0.026358865 -0.07497942
000020 e0 39 c6 bd 7e bf 11 bd 05 9a 8d bc 1e cd 72 3b
       -0.096790075 -0.03558301 -0.017285356 0.003704853
000030 cb 03 c2 bd 8b 9b 0e bd 0d 25 ab bc f7 dc f2 bc
       -0.0947338 -0.034816306 -0.02089169 -0.02964638
000040 7d 57 b6 bb dc 98 24 bd 81 63 05 bd 99 62 66 bd
       -0.0055646286 -0.04018484 -0.032565597 -0.056246374
000050 a1 0f a0 be 35 82 b2 bd 21 42 35 bd 47 85 0d be
       -0.31261924 -0.08716241 -0.04425252 -0.13820373
000060 f4 a9 ab bd df 6e 1e bc 5c 5e c3 bc 4d 10 02 bd
       -0.08382025 -0.009669988 -0.023848705 -0.031753827
000070 fd 12 14 bf 02 6e 82 bc f6 c1 20 bd 6a 04 cc 3c
       -0.57841474 -0.015921596 -0.039247476 0.024904449

StatefulPartitionedCall/sequential/Hidden_3/MatMul/ReadVariableOp:0 f4 [128, 64]
000000 0c b0 dc 3d e5 94 8c bb f6 3c 99 3d 80 85 3f bc
       0.10775766 -0.0042902105 0.074823305 -0.011689544
000010 e5 0e 35 bd 0e bd 90 3d 76 8f ab bd 8f 02 bb bd
       -0.044203658 0.07067309 -0.083769724 -0.091313474
000020 39 01 a9 3d b5 ef 02 3e db 76 ba bd 48 ab 18 bb
       0.08252186 0.12786753 -0.09104701 -0.002329545
000030 9f e9 81 bc be 43 e1 3c 48 e3 b1 3c 7f 99 8b 3d
       -0.01585847 0.027498122 0.021714821 0.068163864
000040 f5 10 d6 3d 34 5e bb 3d 34 29 47 3c f0 49 4f bd
       0.10452453 0.09148827 0.01215582 -0.05060762
000050 aa 7d 94 bd c7 64 3e bd 5e df 0c 3d 94 74 cc bc
       -0.07250531 -0.046482828 0.034392707 -0.024957933
000060 64 65 1e bd 19 d8 26 3e 79 91 b6 3d a3 7c 26 be
       -0.038670912 0.16293372 0.089144655 -0.16258483
000070 07 c9 d3 3b ec 09 ec bd c4 70 8d bd 50 7c bd 3c
       0.0064631733 -0.1152533 -0.06906274 0.023130566
000080 b6 1d ca bd 24 8f 17 be 88 d1 32 bd b9 78 0e be
       -0.09868948 -0.14800698 -0.043656856 -0.1391324
000090 1b 01 ee bd 90 27 77 bd 0c 1a eb bd bb c2 07 3e
       -0.116213046 -0.060340464 -0.114795774 0.13257878
0000a0 13 99 5f 3d f8 1d 85 3d e1 35 1f be 9c 9e 72 3d
       0.054589342 0.06499857 -0.15547897 0.059233293
0000b0 22 9b f7 3d 15 fa 83 3d 34 e6 8d bd bd a6 b9 bd
       0.12090136 0.06444184 -0.069286734 -0.09065006
0000c0 b1 8d b0 3d ea 1a 2a 3e 36 d9 8b 3c dd 6d fc 3c
       0.086207755 0.1661183 0.017071348 0.030814106
0000d0 03 a0 0b 3e be f9 06 3e cc 83 d5 bd 90 64 f5 bd
       0.13635258 0.13181207 -0.10425529 -0.119820714
0000e0 bb f8 f4 3d c5 6d 19 3e e3 22 d6 3d af a1 82 3d
       0.11961504 0.1498328 0.10455873 0.06378495
0000f0 b8 04 d1 3c 8b 1c b2 bd 50 95 8c bd 9d 18 9b bd
       0.025514945 -0.086968504 -0.068644166 -0.07573054
000100 6e fc 98 bd da c5 ea 3d 39 cd b7 3d cd 8c 12 3e
       -0.07470022 0.114635184 0.0897469 0.14311524
000110 3e a9 ac bd 5b b2 8c bd 3a 1c 26 3e ec cf 19 3e
       -0.08430718 -0.06869956 0.16221705 0.15020722
000120 06 ce 98 3d b3 29 f3 3d c0 91 67 3d 1d 3e 32 bd
       0.07461171 0.11873188 0.056535482 -0.043516267
000130 e1 64 ba bd ef 15 9d 3d 6e 69 2f be 1d f4 d4 bd
       -0.091012724 0.07670199 -0.17130062 -0.103981234
000140 2a 95 ef 3d 12 c5 a5 be ae c5 83 bd 10 0e a1 bd
       0.11698373 -0.32376915 -0.06434189 -0.0786401
000150 54 de 34 bd 86 fe 35 be 4a 49 be bd c7 ae 19 bd
       -0.04415734 -0.17772874 -0.092913225 -0.037520196
000160 f1 51 0c be a3 63 14 be f6 68 96 bd 23 eb ab bd
       -0.13703133 -0.14491133 -0.073442385 -0.08394458
000170 1d f9 55 3e 20 e9 16 3c 03 4c b0 3c dd 6a 13 be
       0.2089581 0.009210855 0.02152062 -0.14396234
000180 be 4a 1e be e1 44 6d be 35 04 17 3e 47 c9 35 3e
       -0.154582 -0.23170806 0.14747699 0.17752562
000190 4b bf a2 bc 51 26 d4 3d 07 e5 17 3d e4 d2 14 3e
       -0.019866606 0.10358871 0.037083652 0.14533573
0001a0 16 56 87 3c 90 71 8a 3d 87 e8 da 3c fb 50 76 be
       0.016520541 0.067599416 0.026722206 -0.24054329
0001b0 ae 8a 85 3d 35 62 06 3e f8 e3 8d be ea d9 34 be
       0.06520592 0.131234 -0.2771299 -0.17661253
0001c0 a2 8f 93 3d 1d 2c 57 bc f7 a3 33 bf 67 86 8c 3d
       0.0720513 -0.013133076 -0.70172065 0.06861573
0001d0 e0 05 d1 3d d4 44 b9 3d 56 c1 ab 3d 6d 94 05 bd
       0.10206199 0.09046331 0.08386485 -0.032612253
0001e0 22 15 42 be ef 7f 9e be e6 51 17 be 46 87 ec 3e
       -0.18953374 -0.3095698 -0.14777336 0.46196955
0001f0 5b 12 55 be 2e 01 27 be c9 1c 4b be 3b d6 b6 3c
       -0.20807783 -0.16309044 -0.198352 0.02231895
000200 e6 df b2 3c 36 3a 3e bd ce eb a2 bd 4f ca 1a 3c
       0.021835279 -0.046442233 -0.079551324 0.009447648
000210 e1 cd c5 3d fa c9 d3 bc 8b cb e7 3d 6d f8 28 bc
       0.09658409 -0.025853146 0.113181196 -0.010313136
000220 20 c6 c8 bc 1a a7 5f bd 33 f6 2e be c8 a3 97 bd
       -0.024508536 -0.05460272 -0.17086105 -0.07404286
000230 09 a3 4d be b0 5b db 3d 46 76 1d bd 65 b9 a4 bd
       -0.20081724 0.107108474 -0.038442872 -0.08043174
000240 c3 78 12 be f7 f4 15 3e 64 11 e6 bd 19 b2 9b 3d
       -0.1430388 0.14644228 -0.11233786 0.07602329
000250 92 79 11 3d d3 a0 49 be eb 5d 7b bc 01 75 f6 3d
       0.03551633 -0.19690256 -0.015342216 0.120340355
000260 da 37 48 3b a9 6d 13 3e f8 e5 eb bc 1b 83 17 3d
       0.0030550868 0.14397301 -0.028796181 0.036990266
000270 7d 39 5c bd 90 67 c3 3c e4 3a ca bd 06 42 04 3e
       -0.053765763 0.023853093 -0.09874514 0.12915811
000280 58 af 15 be e5 35 af be 0a a5 f0 bd f4 7e ea bd
       -0.1461767 -0.34220806 -0.11750229 -0.11449996
000290 2c db 29 3e 26 b6 9c 3d fb 48 f6 3d ef 6a ae 3d
       0.16587514 0.076519296 0.12025639 0.0851649
0002a0 fb e5 10 bd e8 db 14 3c 9f 3f 52 be ef 1f 42 be
       -0.035375576 0.009085633 -0.20532082 -0.18957494
0002b0 dc 90 0d 3e a9 79 03 3e 7a 9b 02 bd f4 79 0b be
       0.1382479 0.12839378 -0.031886555 -0.1362074
0002c0 0e 4a 0d be ab c5 cf bc b0 b8 52 be c2 b0 6f 3d
       -0.13797781 -0.02536281 -0.20578265 0.05851818
0002d0 4f 58 12 be ca bc 2a 3e 86 dc 27 be 05 f1 c8 bc
       -0.142915 0.1667358 -0.16392717 -0.02452899
0002e0 e0 22 06 3d d3 d2 ae bd a9 0d b1 bd b5 18 9e bd
       0.032748103 -0.08536305 -0.086451836 -0.07719556
0002f0 52 93 0b be c5 2f e6 bd 71 fa 7b bd e8 6f 14 be
       -0.13630417 -0.1123958 -0.061518136 -0.14495814
000300 53 63 8e 3d 87 d8 a0 3d 78 d2 02 be 2d d2 86 bd
       0.06952538 0.07853799 -0.127756 -0.065830566
000310 68 ce 06 3d e8 1c 09 be 03 71 df 3d c8 47 8e bd
       0.032911688 -0.13389933 0.10910227 -0.06947285
000320 3c 56 fc 3d 3e 2c 09 be 60 0c 2d be a6 91 9a 3c
       0.123211354 -0.13395783 -0.16899252 0.018868279
000330 7b 38 8a 3c ae 0c 00 be 20 65 17 be 4d 8e 09 be
       0.016872635 -0.12504837 -0.1478467 -0.1343319
000340 76 23 f2 bd b2 8b dd bc 53 1a c0 3d 7b 4e 19 3d
       -0.1182317 -0.027044151 0.09380021 0.03742836
000350 95 78 50 3d bd f0 3f be 51 5d cf 3d a2 61 57 bd
       0.050896246 -0.18744178 0.101252206 -0.052583344
000360 05 3b 48 be 01 6d 8c 3d 57 08 d6 bd ad b6 3f be
       -0.19553764 0.06856728 -0.104508094 -0.18722029
000370 90 23 50 bd b0 67 6f 3d 55 2c 21 3e 75 0c 6d 3d
       -0.050815165 0.058448493 0.15739568 0.057873208
000380 d5 e1 19 bd cd 75 5a bd dd 2a c1 bc 7a 64 9c bd
       -0.037568886 -0.053335 -0.02358001 -0.07636352
000390 bc 82 12 3e 93 d3 01 be 10 48 95 3d 61 f1 b7 bc
       0.14307684 -0.12678365 0.072891355 -0.022453966
0003a0 20 2c 0f be 82 10 a4 3d fa 89 3b 3d 67 42 d8 bd
       -0.13981676 0.08010961 0.04578588 -0.1055954
0003b0 6e 68 be 39 19 9d e7 3c 3a 5b 3f 3d 0f 4b 57 be
       0.0003631743 0.028273152 0.04671786 -0.21024726
0003c0 a0 77 1c 3d 7d 21 e8 3d 65 22 ae bc c1 cd 6c be
       0.03820002 0.113345124 -0.021256635 -0.23125364
0003d0 e0 d6 9f 3d 1c 8e c4 3d d2 53 c5 3d 68 a2 9e 3c
       0.07804656 0.09597418 0.09635128 0.01936455
0003e0 1d 47 3a be 20 80 1c be e1 bd 98 bd f7 3c 70 bd
       -0.1819119 -0.15283251 -0.074580915 -0.05865189
0003f0 62 1e 84 bd 6d 5e 61 be 4f 8d 11 3e 79 2d 88 3d
       -0.064511076 -0.22008677 0.14214061 0.06649298

StatefulPartitionedCall/sequential/Hidden_3/BiasAdd/ReadVariableOp:0 f4 [64]
000000 88 b3 1f 3d fa 63 6f bd c9 74 f4 bc 6e 3e b5 bd
       0.038989574 -0.058444954 -0.029840844 -0.08849798
000010 b7 dd fd 3a d8 e6 d7 be 0e d7 d6 3b 37 db 3e 3c
       0.0019368444 -0.42168307 0.0065563982 0.011648945
000020 42 75 67 bd 97 d8 ce bd 52 76 ba bc b1 d0 33 bd
       -0.05650831 -0.10099905 -0.022761498 -0.043900196
000030 8b 81 03 bd 1d 5c 8c bd 29 52 9f bc 3e c7 d7 bd
       -0.032105964 -0.06853507 -0.019448357 -0.10536049
000040 74 e5 83 bd 36 59 dc 3c 30 46 23 bf 24 a8 43 bd
       -0.06440249 0.026898008 -0.6377897 -0.047767773
000050 84 aa e2 bc 48 dc 52 bd 5a 1c 9f bd 14 3e b8 bd
       -0.027669199 -0.051479608 -0.077690795 -0.089962155
000060 8b a0 3c bd d0 c9 12 bd 00 4c 61 3d 47 f0 ac be
       -0.046051543 -0.035836995 0.05500412 -0.33777067
000070 bc fd 89 3c f1 00 02 bd ec d1 1e bb d1 a3 93 bd
       0.016844623 -0.03173918 -0.002423401 -0.0720898
000080 b6 00 37 bd 1e 7a 3d bd 72 45 cb bc 8f 85 01 bd
       -0.044678412 -0.04625904 -0.024813388 -0.031621512
000090 6b d4 0a bd e9 74 44 bd 0b 09 1b be 16 bf ad bc
       -0.033893984 -0.047963057 -0.15140168 -0.021209281
0000a0 19 6a a6 bd 2a 4b 30 bd 26 3b 36 bd 89 96 df bc
       -0.08125705 -0.043040432 -0.044490002 -0.02729346
0000b0 25 59 91 bc ef 36 eb bd 33 c2 12 bf b0 e5 35 bd
       -0.017742703 -0.11485087 -0.57327574 -0.0444085
0000c0 54 d4 53 be c5 24 c8 bd be 01 84 3d e2 00 47 bd
       -0.20686466 -0.09772638 0.06445645 -0.048584826
0000d0 a8 51 e3 3b f3 01 9f bc d0 fd 5f bc 59 cb 3c bd
       0.0069372244 -0.01941011 -0.013671353 -0.046092365
0000e0 4e 4b 90 bd 85 26 75 bd 48 df 2a bd 17 bf 53 3d
       -0.07045613 -0.05985119 -0.041716844 0.05169591
0000f0 ad 9d 4d bd da 3e 98 bd 6e 7c be bc 0f 3a 62 bd
       -0.0501992 -0.07433863 -0.023252692 -0.05523115

StatefulPartitionedCall/sequential/Hidden_2/MatMul/ReadVariableOp:0 f4 [256, 128]
000000 05 af dc 3d b2 f6 d8 3d fa 29 29 be c6 1e 57 3b
       0.1077557 0.105939284 -0.16519919 0.003282474
000010 a3 10 bc bc 3f 91 bf bd 70 4c a2 bd 6c a9 f1 3d
       -0.022957152 -0.09353875 -0.079247355 0.11799893
000020 2e dc 40 3d 35 1f c5 bd 62 a6 af 3d 0a 38 82 bc
       0.04708498 -0.09625093 0.08576657 -0.015895862
000030 f8 2a e8 bd f2 09 26 be 95 de 5d be ab 20 4c 3d
       -0.11336321 -0.16214731 -0.2166694 0.049835842
000040 5c 9d 28 3d b7 4b df 3d 71 80 dd bd a4 52 13 3d
       0.041165695 0.10903113 -0.10815514 0.035967484
000050 b1 63 c5 3d 66 c7 cf bb 7b 34 19 3d 0d d4 e1 3d
       0.09638155 -0.006340909 0.037403565 0.110267736
000060 01 22 8e bd 2e 3a 1d bd a7 f7 86 3d 8e 5a 67 3d
       -0.069400795 -0.038385563 0.06590205 0.056482844
000070 64 9f 70 bd ad 2d be bc 28 6f ed bd 06 4f c7 bc
       -0.058745757 -0.02321514 -0.11593467 -0.024329673
000080 3f b0 8c bb 03 13 b7 3c c1 15 b5 bd 2c 26 a0 3d
       -0.004293471 0.022347933 -0.0884204 0.07819781
000090 e6 62 d6 bc 4e 75 27 3e b0 89 c5 bc 38 da 74 bc
       -0.026170205 0.16353342 -0.024113506 -0.0149446055
0000a0 47 87 8e bc 67 be 9d bd 25 bb ff 3c 67 36 5b 3d
       -0.01739849 -0.07702332 0.031217167 0.05351868
0000b0 e1 ee d3 bd 4b 78 a0 bd 5c 8c b6 bc d1 4f 2f 3d
       -0.10348297 -0.07835444 -0.022283725 0.04280073
0000c0 11 cf 78 bd 13 68 34 3c 3f f7 9d 3b 71 83 9d ba
       -0.06074435 0.011011141 0.004820734 -0.0012017322
0000d0 00 4c 2c be 42 5d 21 3d e6 3b dc 34 17 86 08 bc
       -0.16825867 0.03939558 4.1021775e-07 -0.008332751
0000e0 06 80 1d bd 46 22 90 3d d5 94 c2 bd fa 07 e8 3d
       -0.03845217 0.07037787 -0.09501044 0.113296464
0000f0 e1 16 76 3c 4f 61 03 bd 7e bc 70 bd bc b9 e3 bd
       0.015020103 -0.032075223 -0.05877351 -0.111194104
000100 e7 0f 4c 3d b7 09 b5 3d 45 e1 7f 3d f0 0e ac 3d
       0.049819853 0.088397436 0.062470693 0.084012866
000110 5b f6 ab 3d f0 c2 48 3d 80 5c 64 3c 7a 0a b6 3d
       0.08396598 0.049014032 0.013938069 0.08888717
000120 33 a5 57 3b c4 b5 ca bd 83 2d ec bc 70 43 30 bd
       0.0032904863 -0.0989795 -0.028830295 -0.043033063
000130 de 57 45 bd 0a e9 34 3c 69 ee 9e bd 3a 85 a0 bd
       -0.0481795 0.011041889 -0.07760317 -0.07837911
000140 91 bc 64 be eb 3d 18 3e 8e 0e 1a 3c 58 34 54 bd
       -0.22337557 0.1486737 0.009402884 -0.05180773
000150 94 9b 38 bd 3e 9e ef bd aa 8f 85 bd 5c 46 95 bd
       -0.045070246 -0.11700104 -0.06521542 -0.072888106
000160 e2 26 28 3d 33 d0 f0 bd c8 12 bd 3d cf 0b 9f bd
       0.041052707 -0.11758461 0.09232098 -0.07765924
000170 0e 44 11 be d5 3a e0 3d b7 a6 4b be 02 7a 04 bd
       -0.14186117 0.10948721 -0.19887815 -0.03234292
000180 c5 0f f1 3b 3c 10 cb 3d 0a cf 25 be 45 51 ed 3d
       0.007356616 0.09915206 -0.1619226 0.115877666
000190 0d 57 84 bd f7 fd 0d be 60 55 00 3c dc 17 f2 bd
       -0.06461916 -0.13866411 0.007832855 -0.11820957
0001a0 70 56 25 3c 94 71 bd bd ca f3 a1 3d 4c e4 5b bc
       0.010091409 -0.09250179 0.07907827 -0.013421129
0001b0 af 29 6f 3d f7 35 a1 3d 3e 98 df bd 51 37 37 3d
       0.058389362 0.07871621 -0.1091771 0.04473049
0001c0 68 9b e0 bd 9a aa a5 bd ab 78 9d bd b0 d2 b4 bb
       -0.109671414 -0.0808918 -0.07689031 -0.00551828
0001d0 8d 6d c1 bd ce c1 7c bd d2 6c 14 be 71 d8 4d bc
       -0.09444723 -0.061708264 -0.14494637 -0.012563811
0001e0 c4 e4 59 3d c0 8c 53 3d ba 23 83 bd 54 9d dd bc
       0.053196684 0.0516479 -0.06403299 -0.027052559
0001f0 bc d6 81 3d 69 cf b2 3d bd d3 8e 3d 9b 69 0b 3d
       0.063397855 0.087309666 0.069739796 0.03403626
000200 92 37 8f 3d 92 b7 ae 3d ee 32 2b 3c 32 ff a7 bb
       0.06993021 0.08531107 0.010449154 -0.005126857
000210 4e 90 b8 3d be ab 0d 3e dc a1 75 3e b8 fa 46 be
       0.09011899 0.13835046 0.23987526 -0.19431579
000220 d1 35 0c be 49 47 5e bd 04 e1 73 3d 06 3b 07 be
       -0.13692404 -0.0542672 0.059540763 -0.1320611
000230 e5 cf a4 bd 83 21 dc bc 70 4f 2e 3e da 2f 2b 3d
       -0.08047465 -0.026871448 0.1702249 0.04179368
000240 c0 30 ce bd 44 67 58 bd 1f 48 ff bd d4 10 d8 3d
       -0.10067892 -0.052832857 -0.12464928 0.10550085
000250 ac 8c 17 bd ee f9 b8 3c ca 6a 9b 3c e1 89 29 be
       -0.03699939 0.022580113 0.01897182 -0.16556503
000260 0f e0 d4 bc 42 3c 6d 3d 72 a2 36 3e d4 b5 5b bd
       -0.025985746 0.057918794 0.17835405 -0.0536402
000270 87 6b 4a 3d b6 aa 82 be ca fc bf 3c b5 48 69 3e
       0.049418952 -0.25520867 0.023435969 0.22781642
000280 b7 c6 4e 3d 3e 38 13 3d dc 70 37 3d 90 e5 82 3c
       0.050482478 0.03594231 0.044785365 0.015978605
000290 fb c3 c5 3a 80 5a 9c be e0 81 0e 3b ca 60 ab 3a
       0.0015088314 -0.30537796 0.0021744892 0.001307511
0002a0 4b 44 2d 3d 0f 7e 01 3d 95 7c 97 bd 2d e4 fa 3d
       0.042301457 0.03161436 -0.07396809 0.12250552
0002b0 e1 0c 67 3e cb ca 8e bc 96 cc 2f bc 1f a0 2c bd
       0.22563507 -0.017430684 -0.010729929 -0.04214489
0002c0 17 3b 2b 3e 12 ee ce 3d 87 91 90 bd 2b 0c 67 bd
       0.1672176 0.10104002 -0.07059007 -0.05640809
0002d0 34 53 b3 bd 82 78 39 3e 77 8c 73 be 53 79 8c bd
       -0.08756104 0.18112376 -0.23784052 -0.06859078
0002e0 6f 79 29 3d ed d2 c5 bd 78 d8 98 3d 5b 19 6d 3e
       0.041375574 -0.096593715 0.07463163 0.23154204
0002f0 4a be 2e 3e b8 b9 97 3e 08 44 c0 bd 30 61 44 3c
       0.17064777 0.2963388 -0.09387976 0.011986062
000300 a3 67 75 bd 0b 0c 20 bc 75 be 30 bd a8 16 ea 3d
       -0.05991329 -0.009768496 -0.043150384 0.114301026
000310 a8 00 23 bd 1c d4 ab bd 40 c9 38 3d 10 8c 8f bc
       -0.039795548 -0.08390066 0.045113802 -0.017522842
000320 16 91 63 3e b8 d0 bb bd f8 d9 e5 3d f0 ec 05 bd
       0.22223315 -0.09170669 0.11223215 -0.032696664
000330 65 9b d3 bd a1 ef 19 bd cd f6 48 bd d4 e0 b7 3d
       -0.103323735 -0.037582044 -0.049063493 0.089784294
000340 7e 4d 20 3e 61 e9 84 3c bf 53 25 bd 73 37 aa 3d
       0.15654561 0.016224565 -0.04036307 0.08311357
000350 60 59 ae bd 59 c1 b2 bc ac d7 29 3d 69 c8 30 3e
       -0.08513141 -0.021820711 0.041465446 0.1726395
000360 0b c8 5e bd 5e bc 4f bd 2d ad 94 3d 31 53 9e 3e
       -0.054389995 -0.05071675 0.07259593 0.30922845
000370 00 45 81 3a 1c 9b 18 3e 27 ba 19 be 6f 17 46 be
       0.0009862483 0.1490292 -0.15012418 -0.19344877
000380 7a 85 d9 bd 10 99 39 3e 59 a6 b6 3c af 8f 49 3e
       -0.10621162 0.18124795 0.022296118 0.19683717
000390 2a 9d 71 3d 79 a4 af 3c 10 a3 e1 3c 2c 33 05 3e
       0.058987774 0.021440731 0.027543575 0.13007802
0003a0 f9 33 1a be 69 88 c9 3d e5 fb 57 bd 2b 69 b5 bd
       -0.15058888 0.09840471 -0.05273046 -0.0885795
0003b0 95 f9 1a bd 52 fb 04 bd 3e 0d 9c bd 30 41 b2 3d
       -0.037835676 -0.03246624 -0.07619713 0.0870384
0003c0 3c fa 8c 3d 00 58 d9 3c b8 21 c8 be 4e fc 89 3d
       0.06883666 0.02653122 -0.39088225 0.067375764
0003d0 e0 cd 30 be 49 a3 50 be 3d b7 06 3c a0 99 83 bd
       -0.17266035 -0.20374788 0.008222398 -0.06425786
0003e0 50 76 85 be 85 b0 c4 3c 5e 02 84 bd ce 2a 27 3d
       -0.26066828 0.024009952 -0.06445764 0.040812306
0003f0 84 4b 8c 3d 4e 41 75 3d 57 e5 84 bd 8b eb 09 be
       0.06850341 0.059876733 -0.064890556 -0.13468759

StatefulPartitionedCall/sequential/Hidden_2/BiasAdd/ReadVariableOp:0 f4 [128]
000000 f9 32 0d bd 6e d4 a5 bc d0 c7 fa bc 16 69 0b bd
       -0.03447244 -0.020242896 -0.030612856 -0.034035765
000010 7a 66 10 ba 93 fe 0f be c6 66 23 bd f8 85 08 bd
       -0.0005508434 -0.14061956 -0.039892934 -0.033330888
000020 48 ae 0c be 71 95 70 3d da e9 e6 bc 63 16 36 bc
       -0.13738358 0.05873627 -0.028187681 -0.011113736
000030 3c b6 1a bd 39 e7 8c bd d9 54 0d be 2d 40 36 bc
       -0.03777145 -0.0688004 -0.13801898 -0.011123699
000040 f0 6b 79 bc 7c 4e 0d 3d 16 59 1b bd ad 60 20 bd
       -0.015223488 0.034498677 -0.037926756 -0.039154697
000050 fb 04 5a bc b1 0f 0b bd 0e 55 42 bc 1c c3 97 3d
       -0.0133068515 -0.03395051 -0.011861099 0.07410261
000060 0d 5c 39 3d 2b 64 67 bc 9c 68 39 3d ac 87 fc bb
       0.045253802 -0.014123003 0.04526578 -0.007706603
000070 22 7e 13 bd c1 eb 1b bd af 77 3b bc bc 3c ad be
       -0.03600896 -0.03806663 -0.011442109 -0.338354
000080 39 50 5e bd 31 ee e8 3b f8 e4 64 bd 68 68 2f be
       -0.054275725 0.0071084728 -0.055882424 -0.17129672
000090 86 22 0b bd e9 94 a4 bd 6b c5 c4 bb ba 6e f4 bc
       -0.03396847 -0.08036215 -0.0060049794 -0.029837955
0000a0 07 c5 8d bd 49 f3 af bc 4e 71 00 bd b5 fd 0d 3d
       -0.069223456 -0.021478312 -0.031358056 0.034665782
0000b0 53 84 c1 bd 6d fe 28 3a d6 cf 28 bd 9c ea a0 bc
       -0.09449067 0.0006446604 -0.041213833 -0.01964312
0000c0 05 2b 33 3d 90 ea 4e bc b6 23 21 bd 74 71 34 3d
       0.0437422 -0.012629166 -0.039340697 0.04405351
0000d0 48 16 80 bd 51 ed 2b be a2 be de bd 66 05 07 bd
       -0.0625425 -0.16789748 -0.10876204 -0.032964133
0000e0 f2 3a 93 bd a0 91 1c bd e0 98 01 bd 3c 44 18 be
       -0.07188977 -0.038224816 -0.031639934 -0.1486978
0000f0 c1 65 d8 bd 1e d2 ad be f5 1c cf bc 17 4e 32 bd
       -0.10566283 -0.3394937 -0.025282362 -0.043531504
000100 27 75 01 bc 98 64 6e 3c 60 13 68 3d 96 a5 4d 3d
       -0.007901466 0.014550351 0.056659102 0.050206743
000110 e2 a8 16 bd 00 00 00 00 00 00 00 00 22 f0 25 bd
       -0.036782153 0.0 0.0 -0.04051221
000120 d0 54 16 be 26 dc d7 bb f3 90 66 bc 00 00 00 00
       -0.14680791 -0.006587523 -0.0140726445 0.0
000130 4c dd 39 bc 46 b6 1a bd 87 7f 9d bc 40 3a 59 3d
       -0.011344265 -0.037771486 -0.019225849 0.053034067
000140 a0 16 75 bd 94 47 98 3b 99 f2 7b bc d3 17 df bd
       -0.05983603 0.0046472047 -0.015377664 -0.10893216
000150 69 52 bc bc 38 7a 43 bd 17 97 ef bc 1b 1d 4b be
       -0.022988515 -0.04772398 -0.02924685 -0.19835322
000160 24 bb b5 3c d0 5d 02 bc b3 e2 ae bc 8a 97 d7 be
       0.022183962 -0.007956937 -0.021348333 -0.42107803
000170 c1 87 17 bd be c8 f9 3c 86 dc 04 3d 3c 25 56 bd
       -0.0369947 0.03049123 0.03243687 -0.052281603
000180 6e 64 4e bd dd dc d9 be 49 67 8e be 65 12 61 bd
       -0.050388746 -0.42551318 -0.27813175 -0.054949183
000190 fb a6 1a bc b2 ab 04 bd 00 00 00 00 fe 0c ea bd
       -0.009439225 -0.032390304 0.0 -0.11428259
0001a0 6d 69 6c bd 22 10 ae bd dc ef 01 bd 2c b8 e3 bb
       -0.05771773 -0.08499171 -0.03172289 -0.006949445
0001b0 6f d4 06 bd 1e 2c 78 bd 44 52 a8 bc 51 27 97 3c
       -0.032917436 -0.06058895 -0.02054704 0.018451365
0001c0 d5 52 21 bc fa 1c fc bc 3c c3 46 bd 8f 1c ed 3b
       -0.009846409 -0.030775536 -0.048526034 0.0072360705
0001d0 2e 48 39 bd 06 15 09 be 8c 9a 4c bd 41 04 31 bd
       -0.04523485 -0.13386926 -0.049952075 -0.043216947
0001e0 a2 84 08 bd ec d1 f8 3c 07 8b 04 bd 6c 05 91 bd
       -0.033329614 0.030373536 -0.03235915 -0.07081112
0001f0 1c 43 61 bd 46 3b a7 bc e1 46 12 bd 0b 26 42 bd
       -0.05499564 -0.020414006 -0.035712127 -0.04739956

StatefulPartitionedCall/sequential/Hidden_1/MatMul/ReadVariableOp:0 f4 [3, 256]
000000 c2 9a 3c 3e fd cd 3f 3e 5f ad c9 3d fd 66 a7 be
       0.1841841 0.18730922 0.09847521 -0.3269576
000010 98 e8 a3 be c9 9a a5 3a ae 49 9c be 85 80 c5 3c
       -0.32013392 0.001263463 -0.30524963 0.024109134
000020 c6 db d9 bc 96 8e cf bd 9b ec 3f bd b5 68 84 bd
       -0.026594054 -0.10134618 -0.046856504 -0.06465284
000030 59 d1 1f 3e ea a6 d3 3d 08 80 57 3e c7 79 88 3d
       0.15607204 0.10334571 0.21044934 0.06663852
000040 de a2 f4 3d 92 3f 0e bf c0 fb d4 bd eb 88 40 bc
       0.11945127 -0.5556575 -0.1039958 -0.011751394
000050 30 31 13 bf 85 f7 10 3d d0 22 69 bd b5 a4 32 bf
       -0.5749693 0.035392303 -0.056917965 -0.69782573
000060 40 29 0d bf 9a f1 be 3d f4 7a 1b bf f1 0e 3a 3d
       -0.5514107 0.093234256 -0.60734487 0.045424405
000070 1c 73 b2 3e f9 c6 84 bd de 19 dd bd 46 fa 00 bd
       0.34853446 -0.064832635 -0.107959494 -0.03148868
000080 b7 49 8a 3e 4d 40 36 3e 78 26 02 be 43 fe cf be
       0.27009365 0.17797966 -0.12709987 -0.40623674
000090 e2 88 a7 be b4 6e 11 3e cc a0 93 3e 51 c9 0b 3e
       -0.3272162 0.14202386 0.28833616 0.13651015
0000a0 48 06 ef bd 4e a2 86 3e 04 b1 9e 3e e1 ef 10 3e
       -0.1167112 0.26295704 0.30994427 0.14154007
0000b0 3f fc 8d 3e bd 60 df 3d 42 5f e5 bd 33 2b 6c bf
       0.2773151 0.10907123 -0.111998096 -0.92253417
0000c0 22 8a 1c 3e e1 05 4b 3e 78 bb ed 3d cb 38 46 3e
       0.15287068 0.19826461 0.116080225 0.19357602
0000d0 2e c3 42 3e 53 bf 0b be 04 e5 e0 bc 17 20 fa bc
       0.19019768 -0.13647203 -0.027452953 -0.03053288
0000e0 23 fb fa be bc 08 5f 3e 10 38 7e bf 26 43 0d 3e
       -0.49019727 0.21780676 -0.99304295 0.13795146
0000f0 35 d5 3d 3e e3 55 df 3d ee 34 3b bd 12 21 15 3d
       0.18538363 0.109050535 -0.045704775 0.03640849
000100 e1 05 18 3e 73 6d ad 3c dc 05 e5 3d da f0 31 3e
       0.14845993 0.021170354 0.11182758 0.17377034
000110 58 0a 1a bd 68 37 8d bd 16 d5 56 bd 3b b0 91 bd
       -0.03760752 -0.068953335 -0.05244931 -0.071136914
000120 9c 14 47 3c 55 6a 75 3e 46 d8 60 bd d7 f1 ac 3c
       0.01215091 0.23966344 -0.054893754 0.021111412
000130 6b 4e 10 be 4a 8a 31 bd 0d 53 de 3d e2 cd 13 bd
       -0.14092414 -0.043344773 0.108556844 -0.036085017
000140 6c d7 49 bd 5f 8b d0 3c f8 8f 1f be 54 64 d4 3c
       -0.049277708 0.025457082 -0.15582263 0.025926746
000150 6c 13 2e 3e e9 fe 87 3c d8 c8 4f 3e 82 cf 2f 3e
       0.16999596 0.016601043 0.2029146 0.17169002
000160 98 bd a5 bd 73 35 ba bf 00 68 cf 3a 12 12 7e 3d
       -0.08092803 -1.4547561 0.0015823841 0.062028952
000170 e4 02 d1 3d b3 db 31 3d 67 ef 5b 3e 00 a1 b2 3d
       0.102056295 0.043422412 0.21478043 0.087221146
000180 c1 8b 48 be 6c 08 2c bd ab 16 b8 bf 8f 1b 96 3e
       -0.19584562 -0.04200022 -1.4381918 0.293179
000190 76 82 d9 3d 8b 8f 23 3e d4 b6 49 3e 6c 1f a5 3e
       0.106205866 0.15972726 0.1969865 0.32250535
0001a0 d1 31 b2 3d 80 33 75 3e 18 59 9a 3c 4f 5c 2c 3e
       0.08700908 0.23945427 0.018841311 0.16832088
0001b0 b3 df 0f be 3a c5 08 3e 38 87 ec 3d a0 65 d1 bb
       -0.14050178 0.13356486 0.115492284 -0.0063902885
0001c0 ee 72 ef be 7c c5 e0 3c 12 85 8b be e0 65 5b 3e
       -0.46767372 0.027437918 -0.27249962 0.21425581
0001d0 6c 8b ae 3d 87 e9 27 bd 7b 6b 5a bf 7b ad 37 3e
       0.08522686 -0.040994193 -0.8532025 0.17937271
0001e0 57 b3 18 be 8b cc e7 3a 5c b8 ac bd 4b 0c 3f be
       -0.14912163 0.001768486 -0.08433601 -0.18657033
0001f0 62 76 87 3e 3b 76 9e 3d 06 7e 1f bd b1 f6 0a 3d
       0.26457506 0.077373944 -0.038938545 0.03392667
000200 de 35 19 3e d6 6f 37 3e 31 d5 6c 3e 59 4f 83 bd
       0.14961955 0.17913756 0.23128201 -0.06411619
000210 ac 76 bf be b0 74 1f bf 59 62 ae 3d 91 69 ba 3d
       -0.37395227 -0.62287426 0.08514852 0.091021664
000220 a2 84 19 be 80 e5 91 ba cc 9d 1b be 90 17 14 bc
       -0.14992002 -0.0011131018 -0.15196913 -0.009038821
000230 4f a9 1d be dc d6 63 3d a2 70 65 3e bb 7e 5b 3e
       -0.15396617 0.055624828 0.22406247 0.21435063
000240 88 fe 4b 3e 8e 71 98 3e 5a 6e 34 3e 3c 41 ee 3d
       0.19921315 0.29774135 0.17620221 0.11633536
000250 af 93 30 3e 6e 5d 12 be 6a 9d b6 3c 79 b8 e8 3d
       0.17243837 -0.14293453 0.022291858 0.1136331
000260 13 57 7e be 82 54 57 be 96 4f e3 3c c0 b1 4f bb
       -0.24837904 -0.21028331 0.02774791 -0.003169164
000270 57 6d 9e 3d c6 df 8b bd 01 56 33 bd 80 db 9f ba
       0.07735699 -0.06829791 -0.04378319 -0.0012196153
000280 03 fa 56 3e 1e b6 03 be 56 0d bb 3d 63 42 b6 3d
       0.2099381 -0.12862441 0.09133403 0.08899381
000290 84 c6 07 3e 9f 69 04 be 94 45 e4 be e7 fa cf 3b
       0.13259321 -0.12930916 -0.44584334 0.0063470486
0002a0 7d 6f 8a bd dc dd 99 3c be 06 20 3e 2b b6 46 be
       -0.06759546 0.018782549 0.15627572 -0.19405429
0002b0 f5 22 0f be 05 ea 85 be ea 3c cf bd e9 2c cb 3d
       -0.13978179 -0.26155105 -0.1011904 0.09920675
0002c0 85 2a 19 be f4 a0 0b bf cc f1 9a 3e 39 1b db 3d
       -0.14957626 -0.5454247 0.302626 0.10698552
0002d0 53 a2 0b bd 39 95 13 be fe 50 84 3e f8 39 ba bd
       -0.03409035 -0.14412393 0.25843042 -0.09093088
0002e0 d0 c3 43 3e eb 04 a9 3d 98 dc 1b 3c 80 74 9e 3b
       0.19117665 0.08252891 0.009513043 0.004835665
0002f0 df 8f 53 bc 7b 72 d3 be fc ec 92 bd 95 20 07 3d
       -0.0129127195 -0.4129828 -0.071741074 0.032990057
000300 38 d3 c5 bc 03 32 21 3e 14 c7 dc 3c b7 ef c1 3d
       -0.024148569 0.15741734 0.026950397 0.0946955
000310 96 32 88 bd a2 1b 10 bd 39 9f d0 bd 80 be aa bb
       -0.066502735 -0.035182603 -0.10186619 -0.0052106977
000320 5c 75 91 bf 31 05 83 3e cc 50 8e be f9 da 3e 3e
       -1.136394 0.25589898 -0.27796018 0.18638219
000330 5d d0 8c 3e 57 80 0b 3d 0d 32 d6 3a 02 8d 2b 3e
       0.2750272 0.03405794 0.0016341821 0.16753009
000340 f9 aa 87 bd f1 97 f9 be db 88 79 3e 4d e5 ce bc
       -0.06624407 -0.48748735 0.24368612 -0.025255824
000350 87 8c 8a be b9 21 68 3c fa 3c 4f 3e 20 0a bd bb
       -0.2706034 0.014168196 0.20238104 -0.0057690293
000360 a3 fa 22 3e f3 42 5b 3e 20 be 1b bc aa 66 b2 bf
       0.15915923 0.21412258 -0.009505779 -1.393758
000370 9a 1a 6d 3e e4 a7 87 be 81 c8 63 3d 3b 7c 84 3e
       0.23154679 -0.26495278 0.055611137 0.2587603
000380 15 ff 35 3e 63 84 9d bd 56 d9 20 3e b0 e5 45 bc
       0.17773087 -0.076912664 0.15707907 -0.012078688
000390 82 2d 3d 3e d9 ed 27 3d c9 6a 56 be c0 5e 1e 3e
       0.18474391 0.040998314 -0.20939173 0.15465832
0003a0 f5 25 c1 bd dd b1 47 3e 55 0e 9d bd 0b 41 4a be
       -0.09431068 0.19501443 -0.07668749 -0.19751374
0003b0 87 77 2e 3e b9 15 25 c0 26 03 92 3e a5 4c c5 be
       0.17037784 -2.5794508 0.28518027 -0.38535038
0003c0 75 48 23 bf 76 ea 51 3e 60 bf a8 bb b5 b0 dc 3b
       -0.63782436 0.20499596 -0.005149767 0.0067349323
0003d0 dd 46 3f 3e d1 76 97 3d 4d ab 0a 3e 72 c7 f3 be
       0.18679376 0.07395709 0.13541909 -0.47613102
0003e0 54 06 36 3d ae a7 37 3e e2 48 23 3e b9 f9 4e 3e
       0.04443963 0.17935058 0.15945771 0.20212449
0003f0 79 53 ea 3d a9 74 5d 3e 66 80 2a 3e 2c d3 7d 3d
       0.114417024 0.21626534 0.16650543 0.061968967

StatefulPartitionedCall/sequential/Hidden_1/BiasAdd/ReadVariableOp:0 f4 [256]
000000 e5 d0 a3 bc 5f 83 f7 bd 32 fd 07 be 16 62 d1 3c
       -0.01999707 -0.12085604 -0.1328018 0.025559466
000010 1e 00 09 bd d9 95 0d bd 4f 83 2f bd 54 62 a5 bd
       -0.033447377 -0.034566734 -0.042849835 -0.08075395
000020 4a 20 9c bd 00 00 00 00 f0 90 b1 bd e4 a1 63 bc
       -0.07623346 0.0 -0.08670223 -0.013893578
000030 a6 c1 06 be ae 2d 38 3b 79 79 eb bc bc 92 d7 bd
       -0.13159809 0.00281034 -0.028744446 -0.10526034
000040 5a b3 c0 bd fb a2 93 3c 00 00 00 00 a7 8e dc bc
       -0.094092086 0.018022051 0.0 -0.02692349
000050 6f 28 1f 3c 76 3a f6 bd 34 c8 e1 bb 3c 08 35 bb
       0.00971423 -0.12022869 -0.006890321 -0.0027623316
000060 2b 9c e8 3c 49 cf 4f 3d f9 c4 6b 3b 64 59 42 bd
       0.02839478 0.050734792 0.003597556 -0.04744853
000070 cc cb 2b bb 00 00 00 00 00 00 00 00 21 c6 57 bc
       -0.0026214002 0.0 0.0 -0.013169796
000080 84 a5 09 bd a5 b5 1b 3d 35 3a e8 bb eb 95 ce bb
       -0.033605114 0.038015027 -0.007087017 -0.0063044927
000090 0a a2 1d 3c 56 f3 12 be 9d 05 6b bc 75 2a 60 3d
       0.009621153 -0.14350638 -0.0143446 0.05472799
0000a0 00 00 00 00 ef a6 c0 bc e6 a8 bc bb ff 78 52 3d
       0.0 -0.0235171 -0.005757439 0.051384922
0000b0 16 47 84 bc 14 66 95 bd c9 11 51 bc 5c 88 39 ba
       -0.016147178 -0.072948605 -0.012760588 -0.0007077509
0000c0 fd e6 53 be 22 10 7f bc d6 fb b1 bd c5 12 15 3d
       -0.20693584 -0.015567811 -0.08690612 0.036394853
0000d0 0d 04 50 bc 7b 4a a9 bc 00 00 00 00 1b 4b 02 bd
       -0.012696278 -0.020665398 0.0 -0.031809907
0000e0 20 49 4d bc 71 3c 00 bd 4a fc ba 3c d6 aa 7d 3d
       -0.012529641 -0.03130764 0.022825379 0.0619305
0000f0 e3 b3 d0 3c 66 cf 9b bd 00 00 00 00 8e 30 40 3d
       0.025476402 -0.076079175 0.0 0.046921305
000100 a3 ef aa 3c 4a c8 89 bd e0 1e 2f 3d f4 13 26 be
       0.02086622 -0.06727655 0.042754054 -0.16218549
000110 f9 41 a6 3c b4 f1 29 bd 00 00 00 00 00 00 00 00
       0.02029513 -0.04149027 0.0 0.0
000120 07 3f 3c bd 08 4b f7 bc 00 00 00 00 13 10 63 bd
       -0.045958545 -0.030187145 0.0 -0.05543525
000130 d0 12 f1 bc 00 00 00 00 25 6c 57 3c 00 00 00 00
       -0.029427916 0.0 0.013148342 0.0
000140 73 88 50 bd 73 53 db bc 3a 41 e7 bc e8 6d dd bd
       -0.050911378 -0.02677319 -0.028229345 -0.108119786
000150 95 a4 32 be 60 47 80 bc ce 63 12 be 3e 08 60 be
       -0.17445596 -0.015659034 -0.14295885 -0.21878144
000160 00 00 00 00 1c f7 89 bd 00 00 00 00 44 e4 ab bd
       0.0 -0.067365855 0.0 -0.083931476
000170 ab 10 df 3c 14 25 11 bd f8 df bf bd 20 b9 07 be
       0.027229628 -0.03543575 -0.093688905 -0.13254213
000180 ee cd c1 bc 00 00 00 00 fc 0f 1b bc 27 0e c4 bc
       -0.023657765 0.0 -0.00946426 -0.02393253
000190 1e 3d 73 3d be 41 44 3c 4d 30 f8 bc a7 02 3a 3b
       0.059384458 0.011978565 -0.03029647 0.0028382929
0001a0 08 16 6f 3d 44 90 6e bc 6b 1d 90 bd 38 61 ab 3c
       0.05837062 -0.014560763 -0.07036861 0.020920381
0001b0 0d 17 14 bd d7 f6 55 3d 2f 7a 44 bd 00 00 00 00
       -0.036154795 0.052237358 -0.047968086 0.0
0001c0 66 c8 4b bc 31 fe e4 bc 32 62 9a 3c 38 e1 6e be
       -0.012437915 -0.02795324 0.018845651 -0.23328102
0001d0 12 c3 65 3d 13 09 e8 bd da a3 61 bc d1 80 ef bc
       0.056094237 -0.11329856 -0.013771975 -0.02923623
0001e0 e2 ac 9c bc 60 4e eb bb 63 70 44 bd 0d 43 0d be
       -0.019125406 -0.007180974 -0.047958743 -0.13795109
0001f0 f6 d7 d6 bc ce 03 ff bd 00 00 00 00 8b a7 31 bc
       -0.026226025 -0.124518976 0.0 -0.010843168
000200 34 8c b1 bd cc 0a 54 bd d1 4e 10 3a 95 71 bf bb
       -0.0866932 -0.05176811 0.00055049086 -0.0058423975
000210 d4 ba 9a bc db f5 de bc 5a f1 05 be 70 5b 30 be
       -0.018887915 -0.027216842 -0.1308035 -0.1722238
000220 74 90 00 3b 00 00 00 00 18 7e ae bd 00 00 00 00
       0.001961735 0.0 -0.08520144 0.0
000230 ea d8 c8 bc 03 82 22 bd 84 a4 ba bb 32 2b 72 be
       -0.024517495 -0.03967477 -0.0056958813 -0.2364929
000240 5f 15 03 bc 1a a6 fd 3a 72 72 bc bc 1e 39 ab 3c
       -0.008000701 0.001935187 -0.02300379 0.020901259
000250 27 36 fc 3b 00 00 00 00 7c 63 c7 bc 26 ff e6 bd
       0.007696885 0.0 -0.02433943 -0.112791345
000260 68 ac ff bc 26 4b 54 bd c4 fd 0e 3d 00 00 00 00
       -0.03121014 -0.05182948 0.03490998 0.0
000270 57 b0 9f bd 00 00 00 00 79 fe ea 39 00 00 00 00
       -0.07797306 0.0 0.00044821555 0.0
000280 68 69 5e bd d9 ea 89 bd df c4 0f 3d 8b 6d 15 3d
       -0.054299742 -0.06734247 0.03509986 0.03648142
000290 98 86 c6 3c 60 20 44 bc b6 74 a5 3c 94 01 d8 bc
       0.024234101 -0.011970609 0.020197254 -0.02636794
0002a0 3a a8 5b bc 84 10 94 bc 22 f6 66 3d f1 d5 a4 bc
       -0.013406808 -0.018074282 0.056387074 -0.020121546
0002b0 a4 86 59 bc 1d ae 06 bc 1f 29 37 bd 25 3f 51 bd
       -0.01327673 -0.008220223 -0.04471695 -0.05108561
0002c0 00 00 00 00 77 2e 93 3c c7 76 b6 bc fb ea 76 3c
       0.0 0.017966492 -0.022273434 0.015070672
0002d0 ac 3b 08 bd 23 13 a1 bc 82 61 c6 bc 00 00 00 00
       -0.033260033 -0.019662445 -0.024216417 0.0
0002e0 4a 92 a7 ba e2 24 fe bd 92 f7 1f bd 00 00 00 00
       -0.0012784686 -0.124093786 -0.03905446 0.0
0002f0 ac 65 ab bd b9 0c d3 3c 00 00 00 00 e4 a2 1c 3c
       -0.08369002 0.025762903 0.0 0.0095603205
000300 1e f9 b1 bd 92 29 97 3c c1 23 17 bc 03 78 5e bc
       -0.086900935 0.01845244 -0.009224833 -0.013578418
000310 e1 70 51 bd 00 00 00 00 00 00 00 00 00 00 00 00
       -0.05113304 0.0 0.0 0.0
000320 17 e8 7a 3d 90 cd 1e bd 5f 8b 92 bb 62 93 39 3c
       0.061256494 -0.03877026 -0.0044721807 0.011326643
000330 c5 10 02 bb e3 13 d3 bc d3 a7 f6 3a 9f ac 0c be
       -0.0019846421 -0.025766319 0.0018818326 -0.13737725
000340 68 8c a7 bb f7 86 84 3c 1c a0 d4 bb 1e 2b 10 bd
       -0.0051131733 0.016177638 -0.006488813 -0.03519737
000350 ea 2b cc bb 0a f0 56 bc b8 bd 8c bd 00 00 00 00
       -0.006230821 -0.013118753 -0.068721235 0.0
000360 4b cf cb 3c 6d 3a 7f be 00 00 00 00 d6 ba 99 bc
       0.024879118 -0.24924631 0.0 -0.018765848
000370 60 52 81 bc 78 30 01 3d 33 fb 01 be ee ff 4a bc
       -0.01578635 0.031540364 -0.12693481 -0.01239012
000380 b0 22 d2 3c 18 69 56 bd 2e a3 3d be 00 00 00 00
       0.025651306 -0.05234632 -0.1851928 0.0
000390 c0 58 82 bd 13 a8 90 bd 78 37 9d 3b fc b2 bc bd
       -0.06364584 -0.070633076 0.004797872 -0.09213826
0003a0 07 ae cf bc 44 fc 7e be 00 00 00 00 c0 2f 10 bd
       -0.025351537 -0.24900919 0.0 -0.035201788
0003b0 43 0b 8b bd 7b ac 9e bd 0d 97 62 bc bd ad e6 bb
       -0.067892574 -0.07747742 -0.013829959 -0.007039754
0003c0 f4 28 7a bb 2d 51 c7 bd 00 00 00 00 b3 4e da bb
       -0.0038171383 -0.0973228 0.0 -0.0066622137
0003d0 95 72 2b bd cb 6e e8 bd 6d e9 5b be ea 23 9d 3d
       -0.04185732 -0.11349257 -0.21475764 0.07672866
0003e0 7e ee 74 bd 28 4a a4 3c 66 9c b6 3c b8 a9 e1 bc
       -0.059797756 0.020054892 0.022291373 -0.027546749
0003f0 d5 66 fe bd aa cc 54 bc 00 c2 20 3d 98 f2 d9 bd
       -0.124219574 -0.012988249 0.039247513 -0.10641974
